test/combine_states.pth (torch_old, 156002 bytes, 26 tensors)

combine_coeffi f4 [355]
00000000: 1b89 9c43 a534 9843 5103 9443 78ed 9ac3
00000010: 86fc 9943 3ac8 8143 bae1 9643 b9dd 8b43
00000020: 87ca 9a43 e129 9a43 101f 9543 f1e7 9843
00000030: c1ff 6343 928d be42 1b0a 9143 7658 9443
00000040: 9cd4 5143 dbf9 9bc3 292f 9bc3 94e6 8843
00000050: 28bb 9bc3 7203 9cc3 1a85 8ac3 68d0 7a43
00000060: 0be8 8a43 fbb7 9ec3 2a53 9e43 68f4 92c3
00000070: a243 8743 fbed 8843 12ac 9bc3 a74e 9cc3
00000080: 5fca 89c3 0f94 6643 3229 9d43 fbbe 8ec3
00000090: 1d1d 93c3 c830 9bc3 e0d3 97c3 9696 9dc3
000000a0: f0f0 9bc3 5db3 9143 62f3 9443 3589 8243
000000b0: 929b 97c3 5da1 98c3 2186 87c3 0000 003f
000000c0: 5064 60c3 158a 94c3 bb97 7dc3 01c8 9443
000000d0: 216a 7443 46c3 6443 3dd7 8943 ead4 9bc3
000000e0: 71a3 99c3 cacb 9cc3 fb94 81c3 b3eb 97c3
000000f0: 37b4 8fc3 538a 8443 a99f d9c2 bd59 9dc3
00000100: 3eb1 7a43 0000 003f 49f0 8243 3d46 7f43
00000110: 0790 9b43 deeb 8c43 9985 9ac3 ce1d 99c3
00000120: f30b ee42 2d82 9ac3 a8d1 92c3 2116 dcc2
00000130: 09b0 9443 18f9 9943 1d77 d1c2 790a 9bc3
00000140: 9588 88c3 436c 9843 d844 dfc2 c5d4 37c2
00000150: a5bb 92c2 ce38 8343 188f 98c3 626a 98c3
00000160: 1c79 92c3 4203 78c3 e1c0 8d43 a598 4c43
00000170: 5fe9 87c3 de47 7642 f1d1 9bc3 ad04 9643
00000180: 3f6e 9343 875d 9443 0000 003f 4bda 9a43
00000190: 9d41 e842 4e00 6f42 0eb9 e442 60db 6442
000001a0: a991 9ec3 9266 97c3 5468 6143 8b69 e3c1
000001b0: 7d20 6143 5637 89c3 06d0 f4c2 aa29 9bc3
000001c0: aa56 7f43 2cfd 86c3 7916 ab42 7729 5ac3
000001d0: 0a57 8fc3 b0f3 b442 0616 9942 82fe 9bc3
000001e0: 87be 9b43 0c2f 9b43 0054 9943 56cb 9843
000001f0: 4d03 9143 00de 8143 4fac 63c3 14cf 9ac3
00000200: fd84 95c3 eb67 9943 8b89 9a43 359b 9243
00000210: 361d 96c3 6663 9dc3 7c3d eb42 1f06 ef42
00000220: 90ae 5dc3 1053 03c3 06ea 8442 43ac 3dc3
00000230: 3c09 7dc3 9fd9 fcc2 5fdf 9ac3 2f9d d7c2
00000240: c1c0 d6c2 71c5 4743 c3d7 f142 3f86 6843
00000250: e64f 8a43 b200 9243 1c89 8f43 f0f1 4243
00000260: 4d5c 52c3 13c2 80c3 585e 94c3 5fe1 9fc3
00000270: 8b1d c8c2 c9bc 7943 58cf 42c3 942f 8b43
00000280: 4152 9143 c29b 9443 000d 6a43 8238 fa42
00000290: 9abf 9c43 05f0 8543 9078 99c3 eb12 a8c2
000002a0: 4f9a 9b43 4895 8e43 9670 9b43 ff90 9943
000002b0: ab2c 9dc3 80a0 92c3 f966 ff42 0000 003f
000002c0: 2f50 91c3 8999 e9c2 e3fb c8c2 25d8 94c3
000002d0: 16ba 8d43 4aa9 9843 0a0f 98c3 0000 003f
000002e0: b02b 8b42 6d64 9743 fec5 9943 ff98 9a43
000002f0: 07af 6543 d414 9d43 6a66 8543 9b00 dd42
00000300: 5420 9b43 2ec1 9b43 16b8 9c43 98e2 9843
00000310: c252 04c3 8290 ebc2 0691 89c3 2181 e842
00000320: 4049 8843 4cda fdc1 79ab eec2 4010 e742
00000330: aaf1 30c3 6822 f142 a068 9643 1398 7fc3
00000340: 0e7d 9d43 5cd6 a242 381b 9142 7f57 c9c2
00000350: ef9d fcc2 332a 9a43 62b4 9a43 2b0b 9dc3
00000360: 655f 80c3 0004 9543 1555 f942 d300 9a43
00000370: c01b 9443 bdaa 9843 095d 99c3 e454 a1c3
00000380: 011f bfc2 7161 bfc2 e828 9bc3 0000 003f
00000390: 7189 9b43 c06d a942 90b2 9c43 a88a fa42
000003a0: 3748 55c3 1ded 81c3 044c 58c3 ca7d 9743
000003b0: 8b37 37c3 a94b 96c3 9378 9bc3 1a92 9943
000003c0: 8ff9 9cc3 3ddf c542 4043 3740 d106 5fc3
000003d0: 0000 003f dc83 9dc3 e514 cbc2 4a83 92c3
000003e0: 2495 d8c2 47be e5c2 fafc 7cc2 2619 99c3
000003f0: 90d2 9ac3 e658 53c0 0044 5ac3 1b93 f742
313.07114 304.4113 296.0259 -309.85522 307.97284 259.56427 301.7635 279.7322
309.58224 308.32718 298.24268 305.81204 227.99904 95.276505 290.07895 296.6911
209.8305 -311.952 -310.36844 273.8014 -311.46216 -312.02692 -277.03986 250.81409
277.81284 -317.43735 316.64972 -293.90942 270.52838 273.85922 -311.3443 -312.61447
-275.58102 230.57835 314.32184 -285.49203 -294.22745 -310.3811 -303.65527 -315.17645
-311.88232 291.40128 297.90143 261.07193 -303.2154 -305.26065 -271.04788 0.5
-224.39185 -297.07877 -253.5927 297.56253 244.41457 228.76279 275.68155 -311.6634
-307.2769 -313.5921 -259.1639 -303.8414 -287.40793 265.08066 -108.81184 -314.70108
250.69235 0.5 261.87723 255.27437 311.1252 281.8427 -309.04373 -306.23285
119.02334 -309.017 -293.63794 -110.04322 297.37527 307.94604 -104.73264 -310.08182
-273.06705 304.8458 -111.63446 -45.957783 -73.36649 262.4438 -305.11792 -304.83112
-292.94617 -248.01273 283.50687 204.59627 -271.8232 61.570183 -311.64017 300.03653
294.8613 296.73068 0.5 309.7054 116.12815 59.750298 114.361435 57.214233
-317.13797 -302.80133 225.40753 -28.426535 225.1269 -274.4323 -122.406296 -310.3255
255.33853 -269.9779 85.54389 -218.16197 -286.68 90.47595 76.543015 -311.98834
311.4885 310.36755 306.65625 305.58856 290.0258 259.73438 -227.67308 -309.6178
-299.03897 306.81186 309.07455 293.21255 -300.2282 -314.77655 117.62009 119.511955
-221.68188 -131.32446 66.45708 -189.6729 -253.03607 -126.42504 -309.7451 -107.807
-107.37647 199.77126 120.92141 232.5244 276.6242 292.00543 287.07117 194.94507
-210.36055 -257.5162 -296.73706 -319.7607 -100.0577 249.73744 -194.80994 278.3717
290.6426 297.21686 234.05078 125.11037 313.4969 267.87515 -306.9419 -84.03695
311.20554 285.16626 310.87958 307.13278 -314.34897 -293.2539 127.70112 0.5
-290.62643 -116.79987 -100.49197 -297.68863 283.4538 305.32257 -304.1175 0.5
69.58533 302.78458 307.5468 309.19528 229.6837 314.16272 266.8001 110.50118
310.25256 311.50922 313.43817 305.77026 -132.32327 -117.78224 -275.133 116.252205
272.57227 -31.73159 -119.33491 115.53174 -176.944 120.5672 300.81738 -255.59404
314.977 81.41867 72.55316 -100.67089 -126.308464 308.32968 309.40924 -314.08725
-256.74527 298.03125 124.666176 308.00644 296.2168 305.3339 -306.72684 -322.6632
-95.560555 -95.690315 -310.31958 0.5 311.07376 84.714355 313.39502 125.27081
-213.28209 -259.85245 -216.29694 302.98273 -183.21696 -300.5911 -310.942 307.14142
-313.94968 98.93601 2.8634796 -223.02663 0.5 -315.03015 -101.54081 -293.0257
-108.29129 -114.871635 -63.247047 -306.19647 -309.64502 -3.302301 -218.26562 123.787315

seq2seq.encoder.input_embedding.weight f4 [10, 4]
00000000: 227c 15c1 aea4 0b40 efdf da3d a0ee 753e
00000010: f959 9abf bd0b 923e e297 c340 dd49 c4bd
00000020: cf9a 63c0 d912 7ebf 37b4 7fbf fb10 533d
00000030: 935a 1141 b54a 78c0 514c cc3f 73c7 02be
00000040: f128 e5bc d945 b8be 8e3c b140 9409 483e
00000050: 5628 55bf 0b35 56bf 57c7 5dc0 cefc 14be
00000060: 7b7a 6e40 f908 94bd 5fbf 8d40 58d7 0cbe
00000070: 282d ba3f 3361 cb3f 8b65 2741 22ab 9dbd
00000080: c316 47c0 b5b6 42bd 7037 97bf 5e41 123e
00000090: 5212 fbbc ccd3 ecbf 914b cf40 ffb1 44bc
-9.342806 2.1819263 0.10687243 0.2401681 -1.2058707 0.2852458 6.1122904 -0.09584401
-3.5563238 -0.9924751 -0.9988436 0.051529866 9.084613 -3.8795598 1.596079 -0.12771396
-0.027973624 -0.3599079 5.538642 0.19534904 -0.8326467 -0.8367469 -3.4652917 -0.14549562
3.7262256 -0.07228274 4.4296107 -0.13754022 1.454503 1.5889038 10.462291 -0.076986566
-3.1107643 -0.047537524 -1.1813793 0.14282748 -0.030648384 -1.8502135 6.4779744 -0.012005328

seq2seq.encoder.input_embedding.bias f4 [10]
00000000: cc10 8f40 f40d 10c1 cfce 8040 1b99 08c0
00000010: dcef 05c1 aafb aa40 e79f d3c0 b9a3 49c0
00000020: 3b2f 8340 509e bbc0
4.4708004 -9.003407 4.025245 -2.1343448 -8.371059 5.3432207 -6.6132693 -3.1506178
4.0995154 -5.8630753

seq2seq.encoder.rnn.weight_ih_l0 f4 [30, 10]
00000000: ce2e 853f fa86 af3f 70b8 7c3f 551d f1bf
00000010: 1144 a63f 2456 4fbf cc52 69c0 2886 94c0
00000020: efa2 2c3f 847e 473f 674e dbbe 0406 42bf
00000030: 5cc5 f4bb c740 72be 6860 ac3d e728 3dbd
00000040: 3451 dd3e e5a1 0e3f a897 b53e af2c 25bf
00000050: 8778 22bf 704a cabd 805d aa3f a2a3 34be
00000060: 2f0b 5c3e be8f 33bf b3ea 8b3f f070 e73f
00000070: a4a7 ffbe 3dea f53e 3c17 5abf 532d 2cbf
00000080: 8805 44c0 873b 0540 73be c13f beb4 3f40
00000090: 7593 3c3f 3854 d63f 4ca2 b53f d3e5 8fc0
000000a0: edfd c13f 0ff8 8d40 c115 4abf 3a9d 70bf
000000b0: a589 1440 4a8e 08c0 c242 2bc0 90da 17c0
000000c0: 58fa 3cbf ab75 d23f e9e8 88be 0a4c 51c0
000000d0: cfae ffbf ee12 f83f db18 04bf 7ac7 3dbf
000000e0: e70f db3f 63fe 2b40 9da2 2e40 3c6f 60c0
000000f0: 7627 3940 0bdc 2540 e8e5 2f40 904d e53c
00000100: 7fe9 3640 014b 50c0 4c76 4a3f 5bdd 7cc0
00000110: abca 693f 9d65 e93f 016f 6dc0 69cb 8a3d
00000120: dec1 eebf 76cd be3f 5fbc 1bc0 1dfd 933f
00000130: f0c1 103f d56b 8340 582b 41c0 9631 2240
00000140: 324a 9e3e 65c9 cdc0 dc6d 2dbd 53fb b63f
00000150: de4d 50c0 e3db b7bd f747 10c0 1c77 d0bf
00000160: 8888 afbf eb70 c33f 88d6 2e40 83b1 e03f
00000170: 80ec d13e 12f7 f83f 4e9c a83f 7238 05c0
00000180: 9d79 5440 2d80 3240 497c 3c40 9663 813e
00000190: 607b 0241 9e7e 56c1 3028 3340 d408 c9bf
000001a0: 2e6f bdc1 459a a240 b9e7 68c0 0973 e73f
000001b0: 7d89 aa3f 4838 0ec1 4896 78bf 0d0b 3041
000001c0: 2e7a 433e 8b01 083d febd ae40 96cc 9cbc
000001d0: b365 f73f bc3e 1640 c551 4cbf 9c1b 3f40
000001e0: e946 a1bf 2a21 a6c1 8f7c 3740 4c0c 653f
000001f0: 9e71 34c1 107e c940 2a23 dfc0 d84a bbc0
00000200: 4cf7 863f 9361 a6c0 9f39 51bf f6c1 3dbe
00000210: ff89 fc3e 2f79 0ec0 54f6 b03f c930 0340
00000220: 9acd c7c0 5029 b5c0 c740 19c0 9b0f b5bf
00000230: d6aa bf3e ff13 d740 b98f 69bf 65d5 cabf
00000240: f14d 3f40 776f 9abf 37bf ba3f 4ede ca3f
00000250: 6057 01bf c3c9 b23f c1e5 adbe 12bf 20c0
00000260: ded8 8f40 25dc 8a40 9988 723f 44de 06c0
00000270: 76be b43f 9256 0042 97ae 4b40 ce72 8540
00000280: a44c a53e 4910 9f40 90e1 b43d 55f5 743f
00000290: 71a5 7d3f a3e4 593d 4366 8d3e 9416 e43f
000002a0: 8682 743e ff7f a440 1567 1c3f 930a b440
000002b0: 98f8 60be 28e1 6d3e 0188 5b40 56e2 53bf
000002c0: 3aed 893f e687 5740 94b0 0fbc 8c7d 5640
000002d0: 1d22 4440 4321 71c1 22be d03f e3fe a83f
000002e0: b7c5 0dc1 c664 9240 03bf 9bbd efae 1440
000002f0: bb0e 0c3f 756b 08bf 8dd7 e4c0 e25c 363e
00000300: a577 2b3f d085 0741 2349 4d3f 773c 58bf
00000310: 6192 c840 014a 9740 2b40 3dbe 0599 a940
00000320: 3d64 58c0 ea6d 8bbe ea1b 0a3c 899b 6d40
00000330: c2dc 9abf 8291 d6bf 6ade 3241 1743 d140
00000340: 0f63 48c0 7d2c e23f 6b32 e33f 0291 3940
00000350: 75d2 3f3d 83c5 c4be ab09 673f 64d3 c1bf
00000360: 2793 e7bf d110 1dc0 430d 64bf 670f 1b40
00000370: 6d16 f7bf 697d b13f 765b 533e d57e 6b3e
00000380: 49ee bfbe 7d8d 88bf a1e8 8f3f b136 5240
00000390: 2f93 97bf 01b7 c63f fea9 c7be b040 be3f
000003a0: 8cd7 8ebf a1ae 723f c0cd 6040 90bd f43e
000003b0: 167f 74bf a613 02c1 5029 6dbd 9a14 aa3e
000003c0: eab1 343e 8c3a 9240 3327 dbbe 2cdb 883f
000003d0: 6524 7d40 5b74 53c0 5970 7a40 7c0c 2941
000003e0: 2b79 123f ca7e 1940 368a 5640 bec8 ddc0
000003f0: cfcf 2b3f cdab a840 745f b3c0 d0cf 8040
1.0404909 1.3713067 0.9871893 -1.8837076 1.2989522 -0.80990815 -3.6456785 -4.6413765
0.67436117 0.7792742 -0.42833254 -0.7579043 -0.007469816 -0.23657523 0.084168255 -0.046181586
0.43226016 0.5571578 0.35467267 -0.64521307 -0.6346516 -0.09877479 1.3309784 -0.17640546
0.21488641 -0.7014121 1.0931 1.8081341 -0.49932587 0.48030272 -0.851917 -0.6725666
-3.0628376 2.0817583 1.5136245 2.9954066 0.736625 1.6744452 1.4190154 -4.4968047
1.5155617 4.4365306 -0.78939444 -0.9398991 2.3209012 -2.1336846 -2.6759496 -2.372715
-0.73819494 1.644216 -0.26740196 -3.270266 -1.9975222 1.9380777 -0.51600426 -0.741325
1.7114228 2.6874015 2.7286751 -3.5067892 2.8930335 2.5915554 2.7484074 0.027991086
2.8580015 -3.2545779 0.79086757 -3.9510105 0.9132487 1.8234135 -3.7099001 0.06777079
-1.8652914 1.4906452 -2.4333723 1.1561619 0.56545925 4.106913 -3.0182705 2.5342765
0.30915982 -6.4308343 -0.0423411 1.4295448 -3.2547526 -0.08977487 -2.2543924 -1.6286349
-1.3713541 1.5268835 2.731844 1.7554172 0.41000748 1.94504 1.31727 -2.0815701
3.3199227 2.7890732 2.9450858 0.2527129 8.155121 -13.405912 2.7993279 -1.5705819
-23.679287 5.0813317 -3.6391432 1.8081981 1.3323208 -8.888741 -0.9710431 11.002698
0.19089577 0.033204596 5.4606924 -0.019140523 1.9327911 2.347579 -0.7981227 2.9860601
-1.2599765 -20.766193 2.8669775 0.8947189 -11.277739 6.2966385 -6.9730425 -5.852886
1.0544219 -5.199411 -0.8172855 -0.18531021 0.49324033 -2.2261465 1.3825173 2.0498526
-6.243848 -5.661293 -2.3945787 -1.4145387 0.37435025 6.721191 -0.9123493 -1.5846373
2.9891322 -1.2065266 1.4589604 1.5849092 -0.5052395 1.3967823 -0.3396435 -2.511662
4.495223 4.339373 0.9473968 -2.107316 1.4120624 32.08454 3.182531 4.1702642
0.32285035 4.970738 0.08832085 0.95686847 0.9908057 0.05319656 0.27617082 1.781939
0.23877916 5.1406245 0.6109479 5.626291 -0.21969831 0.23230422 3.430176 -0.82767236
1.0775521 3.3676696 -0.008770127 3.3514128 3.064582 -15.070621 1.6308024 1.3202785
-8.86077 4.5748014 -0.07604792 2.323177 0.54709977 -0.53288966 -7.1513124 0.1780887
0.6697944 8.470169 0.8018972 -0.8446726 6.2678685 4.7277837 -0.1848151 5.299929
-3.381118 -0.27232295 0.008429507 3.712618 -1.209862 -1.6763155 11.1793 6.5394397
-3.131046 1.7669827 1.7749761 2.8994756 0.046831567 -0.3843194 0.9024913 -1.5142636
-1.8091782 -2.4541514 -0.89082736 2.422815 -1.9303719 1.3866397 0.20640358 0.22997601
-0.37486485 -1.0668179 1.1242868 3.284588 -1.1841792 1.5524598 -0.3899688 1.4863491
-1.115953 0.9479771 3.512558 0.47800875 -0.9550642 -8.129797 -0.057900727 0.33218843
0.17645994 4.569647 -0.42803344 1.0691886 3.9553463 -3.3039768 3.9131072 10.565548
0.5721614 2.3983636 3.3521857 -6.9307547 0.67113966 5.270972 -5.605402 4.0253677

seq2seq.encoder.rnn.weight_hh_l0 f4 [30, 10]
00000000: b909 18c0 754c fb3f 0424 2dc0 c8d3 923f
00000010: 30c9 69bf f5fb 0dbf 88c5 dcbf cb91 1fc0
00000020: 194d 5ac0 4f3f aebd aa0a cb3e 101c 9c3e
00000030: 90aa 433f b001 e2bf 209b 0b40 0c65 cbbe
00000040: 78cf 01bf f910 81bf b0e2 1cbf 030a 373f
00000050: 4166 2e3e e244 aabe 5636 9540 ebf2 683f
00000060: b808 243f 13c4 e7be 93e3 62be 8b17 393e
00000070: 0079 a23d 24ae a5be b37c 15bf 86a8 223e
00000080: 6b9f fe3e f1a0 25be 41d7 b440 53ac 683d
00000090: 94d8 423f 7a02 c13f 08d9 6540 4d7c 48bf
000000a0: 3e22 84c0 ba07 4240 d476 9dc0 9c47 8b40
000000b0: d18f bbbf ab09 e0bf 6e16 3240 d69c 2fc0
000000c0: 1475 d3bf 47f8 5e3f f198 8a3e 6801 e1bf
000000d0: faa8 8240 1dbe 0ac0 1206 1bc0 fe4f 0b40
000000e0: ceec 4dbf 8792 6dbe cc79 96bf b9ef 21c0
000000f0: 00d1 34c0 e1cc 0240 31f3 55c0 156d b640
00000100: 90a0 64c0 0a97 5d3f 54ea 1fc0 0849 89c0
00000110: 14d0 64c0 a9cf a1bf a3c6 3a40 5126 823f
00000120: a629 4240 9e17 5dc0 14e6 5140 d8de 973f
00000130: e002 633e edbf 80bf 7da9 6940 07d6 56bf
00000140: c7aa ddbd 4482 753f c1c5 f0bf fd15 6b3f
00000150: 96af b8bf 2437 8540 0ba5 d53f 20f3 ffbe
00000160: 4ebb 133f 56dd 10c0 3db8 3140 7cdb 62c0
00000170: d758 3e40 5492 2cc0 f0c6 1fc0 6395 c53f
00000180: 2f25 31c0 7917 7d40 2f3f 5f40 b86e b6bf
00000190: 2b4b afc0 4911 df41 b870 f440 3f61 6141
000001a0: b4b4 0840 635e 51c1 f225 1941 9c5c 18c1
000001b0: d425 9fc0 ae7b dcc0 25e8 02c1 3f9e 0dc1
000001c0: aae3 d2c0 f145 db40 8f69 dfc0 5926 9fbe
000001d0: c2ee 1040 4dcf 7dc1 7d94 05bf b2b2 0141
000001e0: d58d 343d 4691 ab40 58c0 fec0 adfc 7c40
000001f0: e362 c540 3e3e 4040 e4e1 4441 b9a2 8d3f
00000200: 208f 9cc0 9623 0bc0 1b19 7fc0 c6ab a040
00000210: 8d8c 14c0 080a 1cbf a8c6 953f 1ca2 78c0
00000220: e8f2 a43f cb17 73c0 cf03 d3bf 0401 aebf
00000230: 2890 59c1 c494 16c1 22ec 2ec1 7614 fc40
00000240: aebb 6ac1 b1f1 6ec1 9531 11c1 3a4a 3241
00000250: 833e 2ec1 535c 7141 3705 8d3f e2a3 e7c0
00000260: df81 f03e c11d 9ec0 2797 10c0 1d82 3941
00000270: 69ba f93f c607 3dc0 173f eec0 4c87 ce41
00000280: 7df4 9fc1 4823 f13f e28b 9cc1 576a 4741
00000290: 22ce c1bf ebe5 1f40 e1ec 2c41 ea45 4140
000002a0: 161b b1c1 5474 2bc1 17b9 f7c0 712c af3f
000002b0: 5f00 3bc1 ba69 1041 31d7 56c0 d009 0a40
000002c0: dbd8 28c0 e1cc 8841 4d22 83c0 2c78 98c0
000002d0: 4799 1cc1 13fa 7541 1778 10c1 1f9e 19bf
000002e0: 0b9b 80c1 baad 27c2 4f09 b841 42d7 73c0
000002f0: da66 0dc0 214d ac40 466c 9c3f b8b5 4e3f
00000300: e89f d63f 7ccd dd3e 0165 3d41 6977 47c2
00000310: 2b04 893f 4d1e 20c1 0c96 e73b d067 8ac1
00000320: 9939 863e c84a 9fbe ac87 f53f 79f4 a03f
00000330: c143 6340 8f89 bcc0 89ef d6bf 6c66 8fbf
00000340: 58f2 8dc0 b4cb 44bf 0162 31c0 7de8 823f
00000350: 61ca e2bf b47a 773f 13a9 cfbf 01ef 2a3d
00000360: 650a 293f 934b a03e 0a0b a6bf 40b6 943f
00000370: e62b ad3e 3c67 183e d54e 6f40 438e ddbe
00000380: ca2a 023f 37df ad3e a18e c8bf 45d1 3dbf
00000390: 9288 493f a372 bc3f 4cab 65c0 54c4 3240
000003a0: 5d31 3ec0 6caa 6040 a2da eebf 543d 1bc0
000003b0: c47f 3c40 f144 2fc0 2a06 06c0 98c1 0b40
000003c0: 20a8 1340 78b5 32c0 d060 1f40 da21 37c0
000003d0: 52ea 7ac0 6202 0c3f 4a28 4cbe da30 4940
000003e0: af67 1440 5656 fcbe 84a6 9d40 ac02 2ac0
000003f0: b4c4 3b40 6c15 75c0 1eb8 7e3f bddc 2140
-2.3755934 1.9632708 -2.7053232 1.147088 -0.9132261 -0.5546258 -1.7247782 -2.4932735
-3.4109557 -0.08508169 0.39656574 0.3049016 0.7643213 -1.7656765 2.181343 -0.3972553
-0.507072 -1.0083305 -0.612834 0.7149965 0.17031194 -0.33255678 4.662883 0.90995663
0.64075804 -0.4526678 -0.22157125 0.18075387 0.07933235 -0.3235942 -0.583934 0.15884599
0.49731 -0.16174676 5.651276 0.056804966 0.7611172 1.5078881 3.5913715 -0.7831467
-4.12918 3.0317216 -4.9207554 4.3524914 -1.4653264 -1.750295 2.782619 -2.7439475
-1.6520104 0.8709759 0.2706981 -1.7578554 4.083127 -2.1678536 -2.4222455 2.1767573
-0.8043946 -0.23200427 -1.175592 -2.5302565 -2.8252563 2.0437548 -3.3429682 5.7008157
-3.5723 0.8655859 -2.4986773 -4.290165 -3.5752 -1.2641498 2.9183738 1.0167943
3.033792 -3.4545665 3.2796679 1.1864882 0.22169065 -1.0058571 3.6509697 -0.8392033
-0.10823589 0.95901895 -1.881035 0.91830426 -1.4428585 4.162981 1.6690992 -0.49990177
0.5770768 -2.2635093 2.77687 -3.5446463 2.9741724 -2.6964312 -2.4965172 1.5436214
-2.7678945 3.9545577 3.4882314 -1.4252539 -5.477926 27.88344 7.6387596 14.086242
2.1360292 -13.085544 9.571764 -9.52261 -4.9733677 -6.8900976 -8.181676 -8.851134
-6.590291 6.852288 -6.9816356 -0.31083944 2.2645726 -15.863111 -0.521797 8.106127
0.044080574 5.3614836 -7.9609795 3.952922 6.168321 3.003799 12.305149 1.1065284
-4.8924713 -2.174047 -3.9859073 5.0209684 -2.3210785 -0.60952806 1.170125 -3.8848944
1.2886629 -3.7983272 -1.6485537 -1.359406 -13.597694 -9.41132 -10.93265 7.8774977
-14.67082 -14.934007 -9.074605 11.143122 -10.890262 15.08504 1.1017216 -7.238755
0.46974084 -4.941132 -2.2592256 11.594266 1.9510013 -2.9535995 -7.4452014 25.816063
-19.994379 1.8838892 -19.568302 12.463462 -1.5141032 2.498408 10.807832 3.0198922
-22.138226 -10.7159 -7.741344 1.3685437 -11.687591 9.025812 -3.3568842 2.156849
-2.6382358 17.100039 -4.097937 -4.7646694 -9.787421 15.373553 -9.029319 -0.600069
-16.075705 -41.919655 23.004545 -3.8100133 -2.2094026 5.384415 1.2220542 0.8074603
1.676755 0.43320835 11.837159 -49.86661 1.0704397 -10.007398 0.0070674475 -17.30069
0.2621582 -0.3111174 1.9182029 1.2574607 3.5510104 -5.891792 -1.679185 -1.1203132
-4.435833 -0.76873326 -2.7716067 1.02272 -1.7718011 0.96671605 -1.6223472 0.041731838
0.66031486 0.3130766 -1.2972119 1.1618118 0.33822554 0.14883131 3.7391865 -0.432726
0.5084654 0.33959362 -1.5668527 -0.74147445 0.78724015 1.4722484 -3.5885801 2.793233
-2.971763 3.5104017 -1.8660471 -2.4256182 2.9452982 -2.7385828 -2.0941262 2.183691
2.3071365 -2.792326 2.490284 -2.8614411 -3.9205518 0.54691136 -0.19937244 3.1436067
2.3188283 -0.4928462 4.9265766 -2.656413 2.9338808 -3.8294325 0.9949969 2.5290978

seq2seq.encoder.rnn.bias_ih_l0 f4 [30]
00000000: 1b92 34c0 4b3d 053f cb80 963e 7df7 1940
00000010: 9922 61c0 e040 0840 e8ee 34c0 eaa6 3440
00000020: 7f39 d03f 13ba 0d40 5464 4641 85e1 00c1
00000030: 8354 5e40 b80a 15c1 bb66 30c1 53cc 0f41
00000040: 1fae 46c0 0574 31c0 a0ad 1a41 e4f6 6040
00000050: 6a25 2241 1471 09c0 1993 c23f f92f 8ec0
00000060: 65df 783e 5afa a640 f881 bac0 a39f c940
00000070: 2da8 8040 f4bd a8c0
-2.8214176 0.5204665 0.29395136 2.4057305 -3.5177367 2.1289597 -2.8270817 2.8226876
1.6267546 2.214482 12.399494 -8.0550585 3.4739082 -9.315117 -11.025081 8.987384
-3.1043775 -2.7727063 9.667389 3.515069 10.134134 -2.1475267 1.5201141 -4.443356
0.24303968 5.2180605 -5.8283653 6.300737 4.0205293 -5.2731876

seq2seq.encoder.rnn.bias_hh_l0 f4 [30]
00000000: 978f 22c0 1329 013f da56 5dbc bc71 e83f
00000010: 58c6 55c0 44fb e63f 7544 42c0 c002 3240
00000020: ad05 823f 5a1a 0e40 0f68 4041 b7b6 fec0
00000030: 3201 6140 06db 19c1 3b6e 33c1 cfaa 1641
00000040: 988e 49c0 1df6 29c0 d28d 1741 9ed2 7e40
00000050: dfd2 9bc0 7bc9 47c0 b259 4d3f 94b2 82c0
00000060: fd39 9140 b41f df40 6b58 4240 eefc db40
00000070: 1589 3440 0991 b4c0
-2.540014 0.504533 -0.013509477 1.8159709 -3.340231 1.804543 -3.0354283 2.7814178
1.0157982 2.2203584 12.025405 -7.959804 3.515698 -9.6159725 -11.214412 9.416701
-3.1493282 -2.6556466 9.472124 3.981605 -4.869491 -3.1216724 0.8021499 -4.084299
4.5383286 6.97262 3.0366466 6.874625 2.8208668 -5.6427045

seq2seq.decoder.rnn.weight_ih_l0 f4 [30, 10]
00000000: 704a 7fbf b438 f73e 85dc 1f40 96b4 9dc0
00000010: 8a38 46c0 b3d4 783e 4224 fc3f 60b6 1f40
00000020: d333 9b40 bbe4 8abf 0cd2 c83f e376 083f
00000030: 327e fdbc 4e37 febe c08d 543e ea84 5d3f
00000040: cd6a 46bf b167 a63e 8e9e 66bf 946a e63f
00000050: 82c1 043f 505a 4ac0 a233 6c40 14a6 733d
00000060: 1c93 7940 8218 72bf 5d2a a8c0 2b1b 82be
00000070: ff4f 81c0 6af2 b7bd ecf0 a8be b517 a0bf
00000080: 552b 5cbf 1e75 ff3c 9de2 e83f 0423 36bf
00000090: d0e9 d13f a87c 5c40 95ac f0b9 bee4 8ebf
000000a0: 336b 9cbf 4839 7b3f b961 3140 c346 89bf
000000b0: 4b92 5740 e98b eebf 7b9d eabe 9a0c c4bf
000000c0: f0fd 83c0 e927 dc3f 4483 853f 53cb 3240
000000d0: 89b6 8b3f 2ad9 4bbd 87a2 0640 fe20 7d3f
000000e0: ae8b 18be 5d19 263f b7a1 7c3e 8999 d2bd
000000f0: c7b9 f33f 1c17 9f3f 0462 7ebf 9fa4 bfbf
00000100: ae38 3fc0 6c7b 2840 0731 8240 7c6c 3bc0
00000110: 85b5 4940 c4d9 bd3f a999 cb3f 95f1 13c0
00000120: 5e6b 9d3f 6235 7bbf 2e17 03c0 4e38 a8bf
00000130: 0c7e 1b40 4b86 56bf 53e9 3dbe 4918 8d3e
00000140: 48c5 60c0 75e2 69c0 1367 fbbf d8a9 1b40
00000150: 2692 0140 d921 88c0 7aa1 a2bf 5d09 b3bf
00000160: be05 25c0 1c34 c2bf ac81 9abe f371 603d
00000170: fce0 c7bf f06c ec3e cd4f 113e bfa2 eebe
00000180: 48b3 0a40 a560 9b40 3c46 0c3f 16bc 80bf
00000190: 1b49 533f 5329 d23e 01f3 7d40 67b4 13c0
000001a0: 199a eb3f 4933 5a40 d765 c0be 1ef1 893f
000001b0: d9ba bc3f 16c4 f3bf 62b5 9dbf dacd 823f
000001c0: ea60 94bf 66e8 3abf 64e5 14c0 e4b8 133d
000001d0: 8f24 7e3f b7e0 473f 03a6 3740 9b0d 5dc0
000001e0: d83b a8bf 66a8 a7bf 05d7 2140 2df7 ec3f
000001f0: daf3 c83f f275 3d40 ef22 0cc0 de88 0a40
00000200: 5dce 0dc0 ad52 d43f b9b2 6e40 9d59 b13f
00000210: 3e06 dbbf a226 a4bf c45e 02c0 073f 0f40
00000220: 6f37 933f 423b a7bf 933a 6fbd 9644 d0be
00000230: d307 d6be 01e0 3a40 a844 e1bf fd86 3540
00000240: dda4 55c0 f86b f73f 591e 46be fb26 0abf
00000250: cdf5 6640 c568 583f c5f3 043d e9f2 d93f
00000260: f213 303d 1e32 37c0 d453 5bbe 491b e1bf
00000270: cceb 1f40 f2d1 0740 84a6 c03c c611 60c0
00000280: 43d3 9ebf 5010 8d40 4550 93c0 d401 4dc0
00000290: 6958 0bc0 cc68 81bf b048 ab40 6331 3bc0
000002a0: bce8 7540 9bc0 e13e de40 2840 a88d 9140
000002b0: 6df9 4a3f 2855 2f3f 33d4 4bc0 6809 f33e
000002c0: 9e59 003f 0ffa 843e c616 9b40 5e82 27bf
000002d0: e9a2 3dbf 7113 4640 db83 52c0 67ba c0bf
000002e0: 3947 63c0 6733 01c0 0091 5840 f630 f6bc
000002f0: 40a2 593f da63 d3bf fbce 62bf 5241 4abe
00000300: 10af 8bbf 223b 74bf d490 67bf 23d0 f63f
00000310: d907 1440 6e1b 5b3f 7f9a 423f 007b e9bf
00000320: 5a85 9f3f b94e 0ac0 a721 0d40 2dc4 37bf
00000330: 5307 8a3f 23ad bf3e c68b 2dc0 85ea 533f
00000340: d83c c6bf 0c7c 0f40 e9e0 c13d b2fe 31bf
00000350: 5475 2ec0 b10d 0fc0 e136 653e 028e 39bf
00000360: 495f 4840 fcda 2b40 d968 40be a9e2 9fbf
00000370: 7319 6540 7cf6 6a40 0754 373e 9ea5 1fbf
00000380: b3c9 c4bf bc92 a23f be41 16bf 2a08 78c0
00000390: 436d e43f a7e5 5f40 35e3 7dbf fba8 02c0
000003a0: 8cdf 37c0 ec7c 1ac0 714c a8bf 85fe c23f
000003b0: 32c7 1d40 9104 543f 915d 2abe 0f56 e8bf
000003c0: 4482 00c0 a9fb 2f40 f057 42bf 113f 0440
000003d0: 7d0f 9bc0 323b 8fbf d6fe 3740 14c2 9e3f
000003e0: 5929 4840 0e24 063e bc67 fbbf 576b 43bf
000003f0: ec41 f0bf c823 103f ee7c 8cbf 6a11 bd3e
-0.9972296 0.4828545 2.4978344 -4.928294 -3.0972009 0.24299888 1.9698565 2.4955063
4.850076 -1.0851053 1.5689101 0.53306407 -0.030943964 -0.4965157 0.20757198 0.86530936
-0.77506715 0.32500985 -0.90085685 1.8001275 0.5185777 -3.1617622 3.6906514 0.059484556
3.8996038 -0.94568646 -5.2551713 -0.25411353 -4.041015 -0.08981784 -0.3299631 -1.2507235
-0.8600362 0.031183776 1.8194157 -0.7114718 1.6399479 3.4451084 -0.0004590495 -1.1163557
-1.2220215 0.9813428 2.7715895 -1.072472 3.368304 -1.8636447 -0.45823273 -1.5316346
-4.124748 1.719968 1.0430684 2.79366 1.091508 -0.04976765 2.10367 0.9887847
-0.14897034 0.6488245 0.24671064 -0.10283191 1.904107 1.2428927 -0.9936831 -1.4972113
-2.9878345 2.632533 4.068485 -2.9284964 3.151704 1.4832082 1.5906268 -2.31162
1.2298391 -0.9812833 -2.0482898 -1.3142183 2.4295683 -0.83798665 -0.18546037 0.2755759
-3.512041 -3.6544468 -1.9640831 2.4322414 2.0245452 -4.254132 -1.2705529 -1.3987232
-2.5784755 -1.5172153 -0.30177057 0.05479617 -1.5615535 0.46176863 0.14190598 -0.4660854
2.1671925 4.8555474 0.5479467 -1.0057399 0.82533425 0.41047153 3.9679568 -2.307886
1.8406402 3.4093802 -0.37577698 1.0776708 1.4744521 -1.9044216 -1.2320979 1.0219071
-1.1592076 -0.7301086 -2.326501 0.036064997 0.99274534 0.7807726 2.8695076 -3.4539554
-1.3143263 -1.3098266 2.5287488 1.8512932 1.5699418 2.9603238 -2.1896322 2.1646037
-2.2157204 1.6587731 3.7296584 1.3855473 -1.711128 -1.282429 -2.037034 2.238222
1.1501292 -1.3064959 -0.05840547 -0.40677327 -0.41802844 2.919922 -1.7599077 2.836364
-3.3381875 1.9329824 -0.19347514 -0.5396573 3.6087525 0.84534866 0.03245904 1.7027255
0.04298777 -2.862434 -0.21418697 -1.7586452 2.498767 2.122189 0.0235169 -3.5010848
-1.2408222 4.4082413 -4.6035485 -3.2032366 -2.1772711 -1.0110106 5.352623 -2.9248893
3.84233 0.4409226 2.6289592 4.548542 0.79286844 0.68489313 -3.1848266 0.47468114
0.50136745 0.2597203 4.84653 -0.654333 -0.74076706 3.0949366 -3.2892978 -1.5056885
-3.551222 -2.0187624 3.38385 -0.030052643 0.850132 -1.6514847 -0.8859708 -0.1975148
-1.09128 -0.9540273 -0.90455365 1.9282268 2.312979 0.8558873 0.7601699 -1.8240662
1.2462571 -2.1610548 2.205179 -0.71783715 1.0783485 0.3743678 -2.711656 0.82779723
-1.5487318 2.2419462 0.09466726 -0.6952926 -2.7259111 -2.2352107 0.22384216 -0.7248231
3.1308157 2.6852407 -0.18789996 -1.2491046 3.5796783 3.6712942 0.17903148 -0.62362087
-1.5374054 1.270103 -0.58694065 -3.8754983 1.7845844 3.4983919 -0.99174815 -2.0415637
-2.8730192 -2.4138746 -1.3148328 1.5233923 2.465283 0.8281947 -0.16637255 -1.8151263
-2.0079508 2.749735 -0.7591543 2.0663493 -4.8456407 -1.118994 2.874929 1.2402978
3.1275237 0.13099691 -1.9641032 -0.7633566 -1.8770118 0.563046 -1.0975626 0.36927348

seq2seq.decoder.rnn.weight_hh_l0 f4 [30, 10]
00000000: 1173 373f 7750 a5bf fdac e23f 31c7 00c0
00000010: 3eec bfbf b629 b3bf 247b b6bf ca96 c0bf
00000020: 1d85 c1bf 1eb7 c2bf 8b8e 013f bf9c ce3f
00000030: 1774 dcbe de45 04bf 7e5b e53f 6e90 a3bf
00000040: b6f5 8e3f e1a5 923d b20e c23f 6020 b83d
00000050: 2c42 08c0 edd5 1240 834f dfbe fa6d bfbe
00000060: 72b4 9d3e 4c51 9a40 b530 0d3f cbe3 d53f
00000070: defa 0c40 c9bb 1840 41a7 b53f 8415 0bc0
00000080: 9fc1 9ebe 3a6a 34bf 99ff 763f e96a 7fbf
00000090: 8f00 953f 6f87 5340 9007 03bf 84d8 86c0
000000a0: 3f0d 76bf 6df2 953f e348 18bf 2917 a83f
000000b0: 1a90 a83e 9b7d b5bd 6c4e eebf debb 5e3f
000000c0: d021 86be 8414 f13f b003 633f ea8d 043f
000000d0: f54e 7dbe 8d85 a03e 38ab 39bf a6f2 19bf
000000e0: 2b06 0ec0 d911 1cbe 7396 9bbd 5b86 16be
000000f0: 6b5e 1d40 b65f b0bf b451 4740 478d 2b3f
00000100: 763a b0bf afde 2cc0 ee30 8abf 2b5b 1cc0
00000110: e285 2ac0 444e 27c0 5db9 8b3f ee32 1c3e
00000120: 9ac9 0940 9ff3 1640 5a33 bf3f 59ba c7bf
00000130: f482 a3c0 d7b3 debe 2934 6e3f a045 df3d
00000140: 00c7 14bf 3b15 5540 43c6 18c0 e26d 7740
00000150: dade 7840 a164 3240 aba2 923f aa42 4f40
00000160: ca20 95bf 5e9a 4d40 120c 5a3f 16d6 c1bf
00000170: dd22 7c3d 0fa9 b13f 0d4e 32c0 df35 f6be
00000180: 39fc 50c0 c52f 8340 b21e 01bf d00a adbf
00000190: ccfc a040 0a4c 5fc0 a9a7 9340 97ee 7e3e
000001a0: 7015 e3bf 0749 18c0 d8ba f6c0 dcd1 0abf
000001b0: a539 c5bf 3cdb 4bc0 bed4 acbe f4ee 45c0
000001c0: 8672 fcbf e00f 36bf e081 70c0 07df 47c0
000001d0: deee 32c0 af48 38c0 1ad7 5ac0 9fe7 38c0
000001e0: 515e 4240 b15e 7ac0 d699 6dbf c9a1 45c0
000001f0: 2059 a73f b4c0 b0c0 5891 93c0 3176 e93f
00000200: 8933 c83f 29f0 45c0 9dd9 173f aad8 3ac0
00000210: 251a 2a40 e967 a63f 2844 48c0 44f2 19c0
00000220: 1bfc 6dc0 32da 8cbf 821f 23be fbd5 32c0
00000230: d010 1040 0209 20c0 22a2 fa3f 7ce6 21c0
00000240: 4c5e 37c0 7678 7ec0 4e93 b3c0 0687 5cc0
00000250: bcd2 2abe dc4a 6dc0 7a70 7b3e 4b01 0cbf
00000260: 90fb 8b3d d4f9 6f3f c830 29c0 6b87 14c0
00000270: a101 4bc0 6324 ccbf ba47 59c0 a1db 0fc0
00000280: c376 b93f a6bf 53be 1ad9 8fbc da60 353f
00000290: 1610 2c40 0bd8 aac0 a57e 11c1 a925 22c1
000002a0: beaf b1c0 cba7 b8bf 48fd 6c3f dd2d 32bf
000002b0: 3042 893f 76c9 90bf 234d 9ec0 8da4 96c0
000002c0: 590e 9bc0 ec61 5fc0 40c3 4ac0 8f42 a1c0
000002d0: 9cfe 6d3f 887b c0bf 28c8 1e3e 2102 bbbd
000002e0: 2a92 b6c0 529e d9bf 42d7 82c0 7abf 4ec0
000002f0: 5e32 d4c0 36ca 4cc0 af49 82bf 8817 37c0
00000300: f2b3 c8be d140 e63f c50c 49c0 006f f6be
00000310: ec28 8dbf 514e 193e 9e15 88bf ee1f 2cc0
00000320: 5ce0 69bf d84a dc3f 5d1e cabf d1c4 e33f
00000330: ef52 d13f aefb e73f 84e9 f63f 2c75 ee3f
00000340: d2e9 d73f 297b d93f e3b2 adbf 658b f03f
00000350: 79c9 4abf 2b0d 1440 9496 353f 9ccf 033f
00000360: f303 f7bf abfa 373f 06c8 b13e 1a94 ae3e
00000370: 7e93 66bf 6277 463e 4b33 4b3f bcbd a13f
00000380: 4a3d d7bf f3b2 f53d 177c 76c0 4ec7 edbd
00000390: e704 703e ae00 7b3d 7140 35c0 7785 bebe
000003a0: df2a f8be 51ff c5bf 7695 68bf 2c33 23be
000003b0: 2d3f 983f 3134 48bf f10c bebf 5619 75c0
000003c0: 8119 79c0 9a94 2740 801a aac0 a16d 5940
000003d0: 8dd6 25c0 c1a4 abbf 2d53 593f e5d1 1dc0
000003e0: 1bb8 d2be 3343 6440 cd82 e43e 8193 e23f
000003f0: 6e8c 86bf e7a7 1940 b337 bc3f 0501 4b3f
0.7165995 -1.2915181 1.7709042 -2.0121577 -1.499397 -1.3997104 -1.425633 -1.5046017
-1.5118748 -1.5212133 0.5060813 1.6141585 -0.4305732 -0.5166911 1.7918546 -1.2778451
1.1168735 0.07160545 1.5160735 0.0899055 -2.1290388 2.294307 -0.4361535 -0.37388593
0.3080173 4.822424 0.55152446 1.6710142 2.2028117 2.3864615 1.4191667 -2.1731882
-0.31007096 -0.7047459 0.9648376 -0.99772507 1.1640795 3.3051412 -0.51183414 -4.21393
-0.9611396 1.1714607 -0.59486216 1.3132068 0.3292244 -0.08861848 -1.8617682 0.8700541
-0.26197672 1.8834386 0.886775 0.51779044 -0.24737151 0.3135189 -0.72526884 -0.6013588
-2.2191265 -0.15241183 -0.07597055 -0.1469969 2.4588878 -1.3779209 3.1143618 0.6701245
-1.3767841 -2.7010915 -1.0796182 -2.4430645 -2.6644216 -2.614152 1.0915943 0.15253803
2.1529298 2.3586195 1.4937546 -1.5603744 -5.1097355 -0.43496582 0.9304834 0.10901952
-0.5811615 3.3294208 -2.387101 3.8660817 3.8886018 2.787392 1.1455892 3.2384439
-1.1650631 3.2125468 0.8517467 -1.5143459 0.061556686 1.3879718 -2.7860138 -0.48087975
-3.2653944 4.0995812 -0.5043746 -1.3518925 5.030859 -3.489016 4.6142163 0.24895702
-1.7740917 -2.3794572 -7.710308 -0.5422647 -1.5408217 -3.185256 -0.3375606 -3.0927095
-1.972245 -0.71117973 -3.757927 -3.1229875 -2.7958293 -2.8794363 -3.4193788 -2.889137
3.0370066 -3.9120295 -0.9281286 -3.0879996 1.3074074 -5.5235233 -4.611492 1.8239194
1.5640727 -3.0927832 0.59316427 -2.9194741 2.6578457 1.3000461 -3.12916 -2.4054117
-3.7185123 -1.1004088 -0.15929988 -2.7943103 2.2510262 -2.5005498 1.9580729 -2.5296926
-2.8651304 -3.9761024 -5.6117315 -3.4457412 -0.16681951 -3.707694 0.24554625 -0.5468947
0.06835091 0.9374058 -2.6436024 -2.3207653 -3.1719744 -1.5948604 -3.3950028 -2.24778
1.4489368 -0.20678577 -0.017559577 0.7085091 2.6884818 -5.3388724 -9.093419 -10.134194
-5.552703 -1.4426206 0.92573977 -0.6960123 1.0723324 -1.1311481 -4.946916 -4.707587
-4.8455014 -3.4903517 -3.168167 -5.039375 0.9296663 -1.5037699 0.15506041 -0.091312654
-5.7053423 -1.700144 -4.0887766 -3.2304368 -6.6311483 -3.199842 -1.0178736 -2.8608112
-0.39199787 1.798853 -3.1414044 -0.4813156 -1.1028113 0.14971282 -1.0631597 -2.6894488
-0.9135797 1.721034 -1.5790516 1.7794439 1.6353434 1.8123682 1.9290013 1.8629508
1.6868231 1.699071 -1.3570217 1.879254 -0.7921367 2.3133037 0.7093289 0.5148866
-1.929808 0.71866864 0.34722918 0.34097368 -0.90068805 0.19381478 0.7937514 1.2636027
-1.6815579 0.119970225 -3.8513238 -0.1161028 0.2343937 0.061279945 -2.8320582 -0.372112
-0.48470208 -1.5468541 -0.9085306 -0.1593749 1.189428 -0.7820464 -1.4847699 -3.8296714
-3.8921816 2.618445 -5.315735 3.3973162 -2.5912201 -1.3409654 0.8489254 -2.465936
-0.41156086 3.5666015 0.44631043 1.7701265 -1.0511606 2.400873 1.4704498 0.7929843

seq2seq.decoder.rnn.bias_ih_l0 f4 [30]
00000000: abc0 683f f61d f73f 3909 a63e 3516 eb3d
00000010: f13b dbbf f820 f43e d5e0 8a40 6c51 4cbf
00000020: 2936 46bf b69c a73f afeb 0040 3a18 3a3f
00000030: c957 5140 fa31 7340 02d5 1340 a35f 373f
00000040: 1064 c03f 2bf6 a83f 293d c33f 64e7 99bf
00000050: 713e f53f bd11 e2bf 3030 343f d716 6c3f
00000060: c13a 3dc0 ba78 08c0 b47c 00c1 9c96 40c0
00000070: 0922 a0be 342b 2bc0
0.9091899 1.9306018 0.3242891 0.11478845 -1.7127668 0.47681403 4.3399453 -0.7981174
-0.7742639 1.3094699 2.014385 0.72693217 3.270983 3.7999253 2.309876 0.71630305
1.5030537 1.3200125 1.525304 -1.202374 1.9159681 -1.7661663 0.7038603 0.9222235
-2.956711 -2.1323686 -8.030445 -3.0091925 -0.31275967 -2.674512

seq2seq.decoder.rnn.bias_hh_l0 f4 [30]
00000000: 9076 583f 7260 bf3f 1530 243e a8d2 a4bb
00000010: c06d c2bf 1c6a a23c 21f0 8640 9d96 f0be
00000020: b192 50bf de8f b43f cbd5 0140 a543 1e3f
00000030: cce9 3140 cb13 8140 8a2a 1840 1d21 383f
00000040: 3058 c13f 72ef e33f b604 823f 00ef a4bf
00000050: a0d9 84c0 d9f5 0fc0 bde4 27c0 d34e 113f
00000060: 335f a6c0 407e 6fc0 d2a7 dac0 96ad 2340
00000070: b9db b4bf 1d6e 56c0
0.8455591 1.4951308 0.16033967 -0.005029995 -1.5189743 0.019825988 4.2168126 -0.4698991
-0.81473833 1.4106405 2.028674 0.6182197 2.7798948 4.033666 2.3775964 0.71925527
1.5105038 1.7807448 1.0157688 -1.2885437 -4.1515656 -2.2493804 -2.623336 0.567609
-5.199121 -3.7420807 -6.832986 2.5574698 -1.4129554 -3.3504708

seq2seq.decoder.embedding.weight f4 [355, 10]
00000000: 8f5a 9e3f 5584 15c0 1c1a dbbf 0731 9c40
00000010: 8e59 28c0 cf96 b6be 7019 d5bf 7934 b4bf
00000020: 87a1 6c40 47da 63bf 9d89 1c3f de6f bc3f
00000030: a7df 013f 2ed8 eb3f 96e1 8e3e 4eff a0bf
00000040: a005 f7be e381 303f 4360 71be aa94 26c0
00000050: 2445 c6bf ac90 eb3e 97c3 12bf b099 00bf
00000060: d865 dcbf 57c7 79bf 521c 293f beff 793e
00000070: 5df3 6dbd cb7b 64bd 4513 213e 8ee5 14be
00000080: b47e 06c0 9d1d 9c3e b4d3 41bf cdef 4c3f
00000090: af1c fd3f 0d46 2dbe c7b9 bdbf 57b7 d33f
000000a0: 7cc0 9f3f 9689 57bf 0839 95be 6c05 cdbf
000000b0: 0997 e9be 692b 5d3f 535d f93e 893a 0ec0
000000c0: 3747 f7be cc57 a5bd 3dc0 09bf cbae 01c0
000000d0: ed01 09c1 0bde 90bf aec1 a1be 4da1 95c0
000000e0: 9cc7 b8c0 765f 47bf 4a46 0840 462e 2cc0
000000f0: 3713 be3f 70f6 e73f 9bd0 1e3f 0c3c 183f
00000100: e23c 863f 2e3c 46bf 1e02 10bf d4da 3a3f
00000110: dc15 273d dc71 eebf e74c 44be bb26 303f
00000120: ba3f 53bf 835e a03f 009a 5b3f 33c5 61bf
00000130: 9759 563e ffb3 57be 9571 82be 3a42 34bf
00000140: 2bc1 0dbf 52d3 573d a22b b23f d4f3 53bf
00000150: e304 273f 1591 64bf 6b0c babf e2bf ecbf
00000160: 10c2 b83d 6664 99be 58e6 683f 6eea d0bd
00000170: 01a7 233f 6268 013d 71af 2c40 e651 10c0
00000180: 9d78 98be cdaa f83f 204b 8ebe c019 2ebf
00000190: eccb 43bf 5e0a 893f 74a9 5c3f 3f70 073e
000001a0: ab1b 263f f318 e7be 1746 f43d 9243 9ebf
000001b0: b8c3 b73f 7c9a 783f b91f 8bbf b10b 53bf
000001c0: f2ce 3940 6a27 973f c753 13bf 0b4f 47be
000001d0: 6b17 f93e f4fe cfbc 87bd b63f 7a43 a93f
000001e0: e305 bfbf d850 53be 526d 2e40 0e90 21bf
000001f0: c320 8e3e 1b4e 723d c88a 9b3e 405b 9ebf
00000200: e358 163f 558f 8340 d9e4 2ebd d4bf eb3f
00000210: 8086 453f 99ac 003f 7edb 02c0 ae3a 1440
00000220: ec72 b53f 14ca 16c0 90e5 8640 3db4 9740
00000230: dcf9 bdbf 5059 cf3f 4874 d73f 4e98 4840
00000240: 9edd 91bf 8326 b440 4805 9d3e dafd ebbf
00000250: 3e73 a73f c942 0040 168a c9bd 0dea 063f
00000260: 9718 473f b238 bc3e 76b2 bcbf ecf0 373f
00000270: c797 9f3e 64a4 073f 674d 2a40 54b0 d83e
00000280: 97b3 973d 5152 9bbe e167 65be 9161 e23e
00000290: 607b 833e dd6a a83f d8a7 6b3e ab32 fb3e
000002a0: fa68 89bf f5d7 683f bc91 11c0 1200 ec3e
000002b0: 40da 983f 58b3 b83f 53a0 8a3f cce3 8b3f
000002c0: 72a7 2dbe e650 24bf eb57 1e40 7d0c c13d
000002d0: a226 673f ec03 4abf a835 9f3e 94a0 1fbf
000002e0: 50a2 96bd 21a8 a53f 887f cfbe 82c3 c1be
000002f0: 6ad7 a8bd b21d bebe a28f f0bf bc99 c8bf
00000300: e3b4 2fc0 b10b 273f 6606 bbbf 7b11 893f
00000310: 885f 1b40 2d4a ef3f 6dc0 663f e54a 4fbe
00000320: 3c40 d1bf bb46 0a3f 6173 21c0 30bf 833f
00000330: a215 10c0 de55 d53f 5261 a7be 4e48 f33e
00000340: 5d6d 5bc0 8d12 7dbf ac29 c3be d314 4cbf
00000350: b6ae 1dc0 f54a 233e 7d7b 26bf 5667 bc3f
00000360: 2a47 633f c242 d43e 914f d3bf 9c16 15bf
00000370: cb18 86c0 ba9f 03c0 58db 84c0 19df 60bf
00000380: 68ba efc0 9493 8840 78d6 00bf dc2a 01c1
00000390: 4c92 48c0 0859 8b3f b2d8 2b3e febc 54bf
000003a0: ce17 62bf 5227 8bbd a563 3c3e f7a9 3c3f
000003b0: 1f28 983f ff8c 19bd ce47 81bf c505 5abc
000003c0: 4489 00c0 d2e5 d53e 9569 68be fd8b 85bf
000003d0: 9751 03c0 d1ac 333f 4a9a 923e 3194 aabf
000003e0: e8dc eabe 665c 0cbf 87d5 08c0 d0c7 04c0
000003f0: 32aa 243f ca40 22c0 6d58 793c 4be3 7e3e
1.2371386 -2.336202 -1.7117343 4.880985 -2.630466 -0.35661933 -1.6648388 -1.4078513
3.6973588 -0.8900494 0.6114748 1.4721639 0.5073189 1.8425348 0.27906483 -1.2577913
-0.4824648 0.6894819 -0.23571877 -2.6028237 -1.548985 0.46008813 -0.57329696 -0.5023451
-1.721858 -0.97569793 0.6605884 0.24413964 -0.058093417 -0.05578212 0.15730007 -0.14540693
-2.1014833 0.30491343 -0.7571366 0.80053407 1.9774379 -0.16921254 -1.482232 1.6540326
1.2480617 -0.84194314 -0.29145074 -1.601728 -0.45623043 0.86394364 0.48704013 -2.2223227
-0.4829652 -0.080733865 -0.5380896 -2.0262935 -8.56297 -1.1317762 -0.31593078 -4.67594
-5.7743664 -0.77880037 2.12929 -2.6903243 1.4849614 1.8122082 0.62037057 0.59466624
1.048733 -0.77435577 -0.5625323 0.72990155 0.04079233 -1.8628497 -0.19169961 0.688091
-0.82519114 1.2528843 0.8578186 -0.8819153 0.20932613 -0.21064757 -0.2547728 -0.70413554
-0.55372876 0.052691765 1.3919566 -0.8279393 0.6524183 -0.8928388 -1.453504 -1.8496058
0.090213895 -0.2995941 0.90976477 -0.10200964 0.639267 0.031593688 2.698208 -2.2549987
-0.2977952 1.9427124 -0.2779169 -0.6800804 -0.76483035 1.0706289 0.86196065 0.13226412
0.6488597 -0.45136222 0.11927431 -1.2364371 1.4356604 0.97110724 -1.0869056 -0.82439715
2.903256 1.1808903 -0.5754971 -0.19463746 0.4865068 -0.025390126 1.4276589 1.3223717
-1.4923671 -0.20636308 2.7254224 -0.63110435 0.2775937 0.05915652 0.3037932 -1.2371597
0.5872938 4.1112466 -0.042698715 1.8417916 0.77158356 0.50263363 -2.0446467 2.3160815
1.4175696 -2.3560839 4.215523 4.7407517 -1.4841876 1.6199131 1.6832361 3.134296
-1.1395757 5.629701 0.30668092 -1.8436844 1.3082044 2.0040762 -0.09840791 0.52700883
0.77771896 0.36762005 -1.4741962 0.7185199 0.31170484 0.52985215 2.6609743 0.42322028
0.07407301 -0.3033624 -0.22402908 0.44215062 0.25680065 1.3157612 0.23013246 0.49062094
-1.0735161 0.90954524 -2.27452 0.46093804 1.1941605 1.4429731 1.0830177 1.0928893
-0.16958407 -0.6418594 2.474116 0.0942621 0.90293324 -0.78912234 0.31095624 -0.623544
-0.073551774 1.2941934 -0.40526986 -0.37844473 -0.08244212 -0.3713203 -1.8793833 -1.5671916
-2.7454154 0.65252215 -1.4611328 1.070846 2.4277058 1.8694512 0.9013737 -0.20243414
-1.6347728 0.54014176 -2.5226672 1.0292721 -2.2513204 1.666683 -0.32691437 0.47516102
-3.42855 -0.9885643 -0.3811773 -0.79719275 -2.4637885 0.15946563 -0.6503218 1.4719036
0.8878046 0.41457182 -1.6508657 -0.58237624 -4.1905265 -2.056624 -4.1517754 -0.8784042
-7.4915047 4.268015 -0.50327253 -8.072964 -3.1339293 1.0886545 0.16781881 -0.8310088
-0.88317573 -0.06794609 0.18397386 0.73696846 1.1887244 -0.03748798 -1.0100038 -0.01330704
-2.008378 0.417769 -0.22696526 -1.0433346 -2.0518548 0.7018557 0.28633338 -1.3326474
-0.45871663 -0.5482849 -2.1380327 -2.0746956 0.643222 -2.5352044 0.015218836 0.24891393

seq2seq.decoder.attention.linear_out.weight f4 [10, 20]
00000000: ba05 753f b005 80bf c48a bd3f c14b 10c0
00000010: abcd 673e 273b 4e3f 2938 3cbf 132f d43e
00000020: 1a79 8d3f 0930 73be b880 023f 79b7 7abf
00000030: 7b27 5b3e bd2b 22bf a70e f6bf 940a bebf
00000040: 8b3c 34c0 85ec 9abf 845f adbf f922 a2bf
00000050: 2c25 733d 7539 ab3f 9dd6 cebf 5598 d93f
00000060: bed1 a0be 31fe 5fbf 57d2 acbd 1b3c 53bf
00000070: 6edb 93bf ab3b 803c 78fa 41c0 b915 ac3f
00000080: 3800 3fbf 8e6d d23f 81f0 ae3f 6029 bc3f
00000090: 36a0 9e40 2824 d73f a029 e03f 2540 6e3f
000000a0: 20a4 6bbd 9d71 ff3e fb82 b83f b8f6 4fc0
000000b0: 9ff9 8fbe 1ce5 803f 13da 98bd 861c 2bc0
000000c0: 37c0 8040 0deb e13f 0310 913f 0934 52bf
000000d0: 8dd4 c33e f745 88bf 7a09 d2bf a763 92bf
000000e0: d114 6ebf 6678 bcbf 62be 8fbf 7734 a0bf
000000f0: 1512 1f40 ebeb c0be 3848 c83f ed28 6dbf
00000100: e1e1 9b3e ceff ffbe 46ff ddbf adef d73f
00000110: 3630 f63f 9e5d 0e40 10a9 0840 e120 cfbf
00000120: 3318 903f 3497 f7be c5ec e5bf c574 03c0
00000130: bd30 1cc0 0220 3bbf eb81 a0bf 74fc e5bf
00000140: 3092 7abf ac08 5dc0 c963 55c0 9fec cb3e
00000150: 3304 7bbe a3a5 05c1 a6c9 7640 6924 de40
00000160: da8c d53f a0fb 8dc0 f9af 813e 3d62 ae3e
00000170: 4ed9 8f3e 5336 833e 6917 f43e bffc e3bf
00000180: b128 6b3f c84f f1bf e47d 9bbf 17fb 7b3f
00000190: af00 c0bf b255 0c40 db36 933f 521e 2440
000001a0: 1934 3fbf c1d9 30bf 899d 8abd f047 82c0
000001b0: b1f4 30bf 792b 64bf dee7 a13f 07be 1d3f
000001c0: d8aa f1be 342b 2940 0a90 d33f b375 eb3f
000001d0: de23 0b40 04ad c03f 6a59 cd3f 7080 c63f
000001e0: e52d ac3d c168 3940 6d57 70be 7b79 f73f
000001f0: 80b6 c0bf 80cb 12bf 9773 7c3d 5e87 a93f
00000200: 721b a63e f7c9 52bf 9eec 483e b7c5 b7be
00000210: 34a4 bd3d dbc3 9f3f da31 38bf 3211 213e
00000220: aa7e 29bf 3be7 1a3f 6c1b 60be 880f 94be
00000230: ed55 833f d466 87bd 6169 8f3f 84e8 3dbf
00000240: 3bad 883e 87b3 023f efd5 f7be c617 71be
00000250: 9063 1840 cc84 8abf 5810 0e40 cf3a 74bf
00000260: fbf3 953f 5705 c3bf 38c5 adbf d8be 73bf
00000270: 471f ecbf c2cb a1bf e54c e73e 7791 99bf
00000280: 3e49 6d3f 0ec9 28c0 3b65 5040 71ec 2ec0
00000290: 31e5 df3f da4e abbe ed83 cfbe 03de 4c40
000002a0: 512f 993f efaf 833f 25fb 2c3f 7aa3 0b3f
000002b0: cf26 123e b7bb 283f fdca aebf 91cb b6bf
000002c0: 6c20 2540 e70e 2abe 2d23 8ebd 7ceb e8be
000002d0: ab5b 4fc0 78cb 8340 2ca8 3fc0 b078 3140
000002e0: 50f7 35c0 ef01 82c0 3b56 6140 258a 9ac0
000002f0: 7800 43c0 6026 ba3f 1824 0bc0 6754 b73f
00000300: 672e f9bf cbae 3740 4b77 1c40 a861 0740
00000310: 7d8b 3940 9999 1640 75c1 2e40 b4fd 1540
0.95711863 -1.0001736 1.4807973 -2.2546237 0.2263705 0.8055901 -0.73523194 0.41442165
1.1052582 -0.23748793 0.5097766 -0.9793621 0.2140178 -0.6334799 -1.9223222 -1.4846978
-2.8161952 -1.210343 -1.3544774 -1.2666923 0.05936162 1.337691 -1.6159245 1.6999613
-0.3141002 -0.8749724 -0.08438557 -0.8251359 -1.155134 0.015653452 -3.0309124 1.3444129
-0.7460971 1.6439683 1.3667146 1.4700127 4.957057 1.6807909 1.7512703 0.93066627
-0.05752957 0.49891368 1.4414972 -3.2494335 -0.28120133 1.0069919 -0.07463469 -2.673616
4.0234637 1.7649857 1.1333011 -0.8211065 0.382481 -1.0646352 -1.6409142 -1.1436661
-0.93000513 -1.4724243 -1.1229975 -1.2516011 2.4854786 -0.3767999 1.564704 -0.9264057
0.3044577 -0.4999985 -1.7343528 1.6870018 1.9233463 2.224464 2.1353188 -1.6181909
1.1257385 -0.48357546 -1.7962881 -2.054002 -2.4404747 -0.73095715 -1.2539648 -1.7967668
-0.97879314 -3.4536543 -3.3342154 0.39828965 -0.2451332 -8.352939 3.8560576 6.9419446
1.668361 -4.436966 0.2532957 0.34059325 0.28095478 0.25627384 0.4767411 -1.7811507
0.91858965 -1.8852472 -1.2147794 0.9843001 -1.5000209 2.1927304 1.1501116 2.5643506
-0.7468887 -0.69082266 -0.06768329 -4.0712814 -0.6912337 -0.89128834 1.2648885 0.61618084
-0.47200656 2.643262 1.6528332 1.8395294 2.1740642 1.50528 1.6042912 1.5507946
0.08407191 2.8970187 -0.2347085 1.9333948 -1.5055695 -0.57341766 0.061633673 1.3244436
0.32442814 -0.82339424 0.19621512 -0.35893032 0.09259835 1.2481645 -0.7195107 0.15729216
-0.662089 0.6050908 -0.2188546 -0.289181 1.0260597 -0.0661141 1.1204034 -0.74182916
0.26694664 0.51055187 -0.48405406 -0.23544225 2.3810768 -1.0821776 2.2197475 -0.95402235
1.1715082 -1.5236005 -1.3575811 -0.9521308 -1.8447045 -1.2640307 0.45175853 -1.1997517
0.92689884 -2.6372714 3.2561786 -2.7331812 1.7491819 -0.33458596 -0.4053034 3.2010505
1.1967565 1.0288066 0.67570716 0.5454632 0.14272617 0.6591143 -1.3655697 -1.4280874
2.5801039 -0.16607247 -0.06940303 -0.4549216 -3.23997 4.1185875 -2.9946394 2.7729912
-2.8432198 -4.062736 3.520888 -4.8293633 -3.0469036 1.4542961 -2.174078 1.4322633
-1.9467286 2.8700435 2.444781 2.1153355 2.8991387 2.3531249 2.7305577 2.3436098

seq2seq.decoder.attention.linear_out.bias f4 [10]
00000000: ada2 6d3e 95d9 653f ed74 633f 9ebb 1340
00000010: 875d b93e 878b 90be 6f87 c33f 4fca 1340
00000020: 769d de3f 810b 0fbf
0.23206587 0.8978513 0.8885029 2.3083262 0.36204168 -0.2823145 1.5275706 2.309223
1.7391803 -0.5587693

seq2seq.decoder.out.weight f4 [355, 10]
00000000: a4fd 1e40 fe23 e240 584f 92be b76b 83be
00000010: 94a9 ca40 1923 e53f fe5b 0340 9285 cf3f
00000020: 420e 99bd 002b 9c40 7f23 0ac1 72bb bf40
00000030: 49f8 82c0 3f55 8e40 066b aac1 1657 49bf
00000040: 7825 dd41 5a8e 363f 832d 25c0 2404 ec40
00000050: 4f07 08c1 95e0 e940 3880 abbf fb97 a540
00000060: 3c10 17c1 9621 0241 54a9 08c2 b55d f83f
00000070: a3bb 9ac0 cd3a 1a41 01e7 3ec0 00c4 7740
00000080: 404c 0740 f9e4 9140 e998 2541 aad4 6c40
00000090: 394c 8440 af86 8540 7f7e 1d3e e30c f240
000000a0: 67d0 1ebf a0ed a440 e12b 603f d01d a240
000000b0: 1ed9 1641 68d4 8540 7956 df3f c303 1441
000000c0: 1569 40c0 e7d7 d240 5c61 b93f fbc7 1bc0
000000d0: a935 74bf 658f 6140 bef6 0141 24ff c440
000000e0: 50de 753e 0b71 21c0 bedd aabe 76ee b540
000000f0: d86e 0ac1 e3df a540 2903 80c0 fbff 5d40
00000100: f6bc a3c1 c51b 21bf 05a7 c041 eadd e6bf
00000110: 4fef 3dc0 58d6 f540 080d 01c1 6c3e 8440
00000120: b94f e8be 8d0e ba40 fb84 9f40 3345 09c0
00000130: 7d42 6a40 d2b1 7dbe 1268 b0bf ed0a 6640
00000140: e2e0 c7c0 9915 7a40 8011 91bf 1611 2b40
00000150: d1ef b740 0231 a8c0 a27e b240 153a 8a3e
00000160: b897 e2bf 5c72 dd40 75ba 36c0 b958 8340
00000170: b959 3340 da25 9c3f ea13 1341 8b10 08c0
00000180: db30 123f 1889 fabf 7f6b 8dbf 3dc6 dc40
00000190: 837d 5ebf 4c99 6f40 c767 e540 c6cb 9e3d
000001a0: 8a59 0341 1ae8 0bc1 08a1 a33e d5f3 79c0
000001b0: a846 3cc0 350a 2e40 339e 9940 7d97 84c0
000001c0: 2a66 8b40 89ee 6ac1 72f8 fc40 99d0 5fc0
000001d0: 8fde c3bf f250 49c1 de13 dd40 29f2 5040
000001e0: f072 a740 7b5d 07c1 368e 1041 dabc 78c1
000001f0: 84f1 0041 965a 7ec0 0316 843e 62a0 75c1
00000200: 243e 1141 b1f6 4240 820f d540 8349 50c1
00000210: c53d 4241 4fd1 69c1 2af8 0041 9b12 86c0
00000220: b048 893e 3a4a 6dc1 b709 df40 87d7 8240
00000230: bada 5b40 8557 ffc0 cf14 4441 83fe 46c1
00000240: 0588 ff40 6387 4cc0 024f 76bd cb11 8ec1
00000250: 43e2 0941 14dd 1240 8edc 3540 d421 acc0
00000260: d64e 9cbe 9c17 5ac1 d05f ee40 3eb4 01c0
00000270: 50ae 69c1 2853 4dc1 dd38 8040 62e1 b6bf
00000280: c136 a940 3ffc 72c0 2ad9 8fbf 98ab 83c1
00000290: ca87 0741 618b bdbf 696a 8dc0 4b1c efc0
000002a0: aa93 8b40 a98b 21c0 c320 bd40 6962 5fc0
000002b0: 68f2 b8be 0890 80c1 f21a fd40 2b18 11c0
000002c0: fa9e 72c0 8873 10c1 c907 9d40 8c07 41c0
000002d0: e2c6 6840 aa60 15bf 3966 123f bfa4 4bc1
000002e0: 2b3e 1b41 5506 ad3f 5ec1 0ac0 a65f a8c0
000002f0: 84ac 823f 15fd 32c0 90d4 d5bf 7020 88c0
00000300: c80f dcbf 44d8 a4bf bdf3 8c41 383d 1941
00000310: 2ec5 89c0 31dc 47bf 7b4b 2340 b7f3 4ac0
00000320: 8afa d0bf 9a18 89c0 8a9b 9d3e f5e2 49be
00000330: 23c6 1741 2890 2a41 22a1 9dbf b593 2cbf
00000340: a0b4 b43f a512 59c0 dee3 d5bf 141a c5c0
00000350: cba3 063f c2de ce3f 2b98 6841 57f3 1641
00000360: af91 f73e d50f 213e 8aa2 1940 6c24 50c0
00000370: 0bff e5bf 4ade ebc0 8e32 06c0 be57 e83e
00000380: 621a 0241 a020 2e41 6bb7 5e3e 6da3 f7bf
00000390: 2881 2140 6174 1cc0 6683 9a3e 2b09 e5c0
000003a0: c1e8 093e f6c7 6cc0 a9b3 4041 1567 1341
000003b0: f0f8 b140 20a9 8bc0 1b57 6e40 7104 73c0
000003c0: 67d7 1bc0 ba89 90c0 162b 9c3f 8dee d2bf
000003d0: 951e 0341 a6aa 0e41 2c24 6a3e 10a4 91c0
000003e0: e57f 0b40 e99b b0c0 8661 983d 048b 5ec0
000003f0: 62ae 763f b118 b0c0 705a ee40 ec6d 3c41
2.484231 7.0668936 -0.2857616 -0.25668117 6.3332005 1.7901336 2.0524898 1.6212637
-0.074734226 4.880249 -8.633666 5.9916315 -4.0928082 4.447906 -21.302258 -0.7864851
27.643295 0.7131096 -2.5809028 7.3755054 -8.501784 7.308665 -1.3398504 5.1748023
-9.441463 8.1332 -34.16536 1.9403597 -4.835405 9.639356 -2.9828494 3.871338
2.114029 4.559201 10.349832 3.70048 4.1343045 4.172691 0.15380286 7.564073
-0.62036747 5.154007 0.87566954 5.066139 9.428007 4.1821785 1.7448264 9.250918
-3.0064137 6.5888553 1.4482837 -2.4340808 -0.9539438 3.524377 8.12274 6.156145
0.24010587 -2.5225246 -0.333723 5.685359 -8.652061 5.18358 -4.0003858 3.4687488
-20.467266 -0.62933 24.081553 -1.8036473 -2.9677312 7.682415 -8.065681 4.13262
-0.45373324 5.814276 4.984983 -2.1448486 3.6603081 -0.24774864 -1.378176 3.5944169
-6.2462015 3.9075682 -1.1333466 2.6729178 5.7480245 -5.2559824 5.577958 0.26997438
-1.7702551 6.92021 -2.8551304 4.1045804 2.8023512 1.2199051 9.192362 -2.1260097
0.571058 -1.9573088 -1.104843 6.899199 -0.86910266 3.7437315 7.168918 0.077537104
8.20936 -8.744165 0.31958795 -3.9055073 -2.9418125 2.719373 4.8005614 -4.143492
4.356221 -14.683236 7.905328 -3.4971068 -1.5302294 -12.582262 6.908675 3.2647803
5.2327805 -8.460322 9.034719 -15.546106 8.058964 -3.974279 0.25798044 -15.351656
9.077671 3.0463068 6.658143 -13.017947 12.14008 -14.613601 8.060587 -4.189771
0.2681327 -14.830622 6.969936 4.0888095 3.435225 -7.9794335 12.25508 -12.437137
7.985354 -3.1957633 -0.06013394 -17.758688 8.61774 2.2947435 2.8415866 -5.3791294
-0.30528897 -13.630764 7.449196 -2.026626 -14.605057 -12.832802 4.0069413 -1.4287531
5.287934 -3.7966459 -1.1238148 -16.458786 8.470652 -1.480816 -4.4192395 -7.4722037
4.3617754 -2.5241492 5.910249 -3.4903815 -0.3612244 -16.070328 7.909539 -2.2671
-3.7909532 -9.028206 4.9072003 -3.0160856 3.6371388 -0.5835062 0.5718723 -12.727721
9.702678 1.3517557 -2.1680522 -5.261676 1.0208898 -2.796697 -1.6705494 -4.2539597
-1.7192316 -1.2878499 17.619013 9.577446 -4.30532 -0.7807036 2.551482 -3.1711252
-1.6326458 -4.284253 0.3078273 -0.19715483 9.485873 10.660194 -1.2314799 -0.67412883
1.4117622 -3.391763 -1.6710165 -6.1594334 0.5259368 1.616173 14.53715 9.434409
0.48353335 0.15728696 2.4005456 -3.252223 -1.7968458 -7.370885 -2.0968356 0.45379442
8.131441 10.882965 0.21749656 -1.9346749 2.523508 -2.4446032 0.30178374 -7.157369
0.13467695 -3.6997046 12.043862 9.2126665 5.561638 -4.364395 3.7240665 -3.797146
-2.435022 -4.5168123 1.2200649 -1.647905 8.194966 8.916662 0.22865361 -4.551277
2.179681 -5.519032 0.07440476 -3.4772348 0.9635984 -5.503014 7.4485397 11.776836
