test/embedding_trans.pth (torch_old, 14616 bytes, 1 tensors)

weight f4 [355, 10]
00000000: 42d0 4ebf 26cc f73e 468e a33f 2667 a0bf
00000010: 1785 6d3d bb0a 643f f750 1ebf 9db1 3f3f
00000020: 9181 ab3f e55a 103e e821 b8bd 4ef3 c1bf
00000030: 0006 9e3d 5409 a9bf 1dfd 9cbd 1a65 9fbe
00000040: b29c 3b3e dcc4 4cbf 5e85 44bf 814e 85bf
00000050: db14 27bd cfae 2240 6304 a03f e5f3 a83d
00000060: 1197 bd3c 0fe2 afbf 4b4f fd3d 1bb3 c93f
00000070: 00c2 f93e b93f 613e d1e7 813f 814c 743f
00000080: df7f b33e e73b 07be 6a3f 2cbe 6f86 bb3f
00000090: c87e 923d f730 583f 3155 803f 9418 de3d
000000a0: 5acc b1bd 7a89 d63e e085 773f 10b7 8ebe
000000b0: 23d4 cc3f b3b9 b13e 2f27 353e aecb b63e
000000c0: f7d3 0a3e a340 dc3f fc93 e63d 6ff6 c03f
000000d0: 68ec b6bf de3e 963e 6459 ed3e a823 88bf
000000e0: 8605 43bf 644b 193f c870 5fbe c438 48c0
000000f0: 910b e7be c39a 623e 7e76 4c3f 41b7 bcbd
00000100: d7c0 893f 7ce9 86be 7e42 b4bb f483 583d
00000110: 0c12 603e 37da a13e 502b 54be dada af3e
00000120: 5f4c 033f 7292 ea3e 4fba a3bf d847 b2be
00000130: 8262 1dbf 5dae 4abf b73a 733e 4d73 563e
00000140: 4c39 4cbf 6d7d 45be ecaa 083f b344 4e3f
00000150: 6bda 99be daee ca3c 3bd1 98bd b6c5 873f
00000160: 970c c53f f99e df3e 0617 1a3e 749c 1ebe
00000170: 9976 9d3f 9a01 dc3e 1a0f a43f 7f35 48bf
00000180: 367b 4abf b414 a0bf fe73 8d3f 1868 803f
00000190: c562 a93e f981 473f 5a93 2a3f b811 543f
000001a0: c80c e63e 5a39 7ebf 28a5 b23f 9aff 123f
000001b0: dc8b bb3e 6294 8d3f 4ef9 2dbf 1adb 2b3f
000001c0: c6db 123f a06a 06c0 2a4a a63f 69b0 d03e
000001d0: 9f66 d43e 59b6 8a3f f82e 00bd 5eda 47bf
000001e0: 27fe 94be 95f6 f33f 3979 4ebe ea99 3ebf
000001f0: c17b 713a 31f8 183e 359b 35be ff06 1a3f
00000200: 61a6 763f d89e d23e f2ba 4fbf adcf 3d3e
00000210: ced2 b0bf ad43 5fbf d7a3 f23e 4793 a2be
00000220: 3e50 a4bf d1ee 49bf 7eb5 163f a7b0 dfbe
00000230: 633a a53e 866b 24be 2470 213f e980 ac3f
00000240: 80f2 f4be 773c d93f 3dcd 3dbd 9c19 4f3f
00000250: dc3e b6bf fb42 9d3e 923b 963e 1286 223e
00000260: 65ed 603f fdaf ff3e 73fe 85bf c8d0 6dbf
00000270: da74 18c0 febc 9f3c 104b d33f c62d 18be
00000280: 8cd1 3a3f 0136 c3be 0407 6e3f 580c 063e
00000290: fb63 87bd 841c 24bf 5cc4 353f e0a3 a5bf
000002a0: b936 603e f6ca 933e 1e06 65be 9b1e 963e
000002b0: 946a d7be 1e43 b4bf caf1 bcbd 8187 0f3f
000002c0: 8c1e 323f e788 cd3f 83a3 36bf 1fcd e5bf
000002d0: 07c3 4fbf 9f12 353f abab a93f 0173 623f
000002e0: 9e08 dabe dfd9 5d3f 7185 223f 04c6 22bf
000002f0: a808 eb3f a09b 173e e027 72bf 99c6 0c3f
00000300: 1254 ee3f b9f7 f83e 99f9 4b3e e5b3 063f
00000310: 53b7 193e 765a a7bf 65da 72bf b402 06bf
00000320: 2040 743f 4fe0 b33e d507 fe3c 565f d53f
00000330: 5929 af3f 52fa a63e 2f5a 81be dda6 293d
00000340: 521f 86be 2e9c e23e a8d2 8c3f 5f3d 2dbe
00000350: 8e69 1d3f 2dff 4a3e a3da 75bf 4633 c63c
00000360: 8838 4c3e 5487 3d3f cdad d9bd 9fbe 5b3f
00000370: 19bb fdbe 3fd1 62bb 92ff 643f d841 01c0
00000380: b63e 9f3f 0d6d b13e 0f16 f13d 882a 0c3f
00000390: c9de c4be 5626 bf3f 57f0 9dbe 72c3 16bf
000003a0: 1036 6d3e 300e 23bf b365 88bf 619b b83f
000003b0: a441 293e f805 ab3f 0465 efbe fbc2 ebbe
000003c0: fdb9 07bf f2f3 acbe 28c7 65bf e528 7e3e
000003d0: cc4f 51bf b6ef 1e3e 34a9 5a3f 098c 11bf
000003e0: c861 6abf 2194 2c3e c6d0 88be d7b1 4540
000003f0: 0cbc ab3d 21a2 0e3f a18e bebe ba6e c93e
-0.80786526 0.4839794 1.2777793 -1.2531478 0.057988252 0.89078873 -0.6184229 0.7488039
1.3398916 0.14097174 -0.08990842 -1.5152376 0.07715988 -1.3205972 -0.07665465 -0.31131822
0.18321493 -0.79987884 -0.76766 -1.0414582 -0.040791374 2.5419195 1.2501339 0.08249644
0.023143323 -1.3740863 0.123686396 1.5757784 0.48780823 0.21996965 1.014887 0.95429236
0.35058495 -0.13206445 -0.16821066 1.4650401 0.07153088 0.84449714 1.0025998 0.10844532
-0.08681555 0.4190176 0.9668865 -0.2787404 1.6002239 0.3471199 0.17690729 0.3570227
0.1355742 1.7207226 0.112586945 1.5075206 -1.4290895 0.2934484 0.46357262 -1.0635881
-0.76180303 0.5988066 -0.21820366 -3.1284647 -0.45126012 0.2212935 0.79868305 -0.092146404
1.0761975 -0.2635001 -0.0055010905 0.052860215 0.21881884 0.31611797 -0.20719647 0.34346658
0.5128841 0.45814854 -1.2791232 -0.34820437 -0.61478436 -0.7917231 0.23752867 0.20942421
-0.7977493 -0.19286127 0.53385806 0.80573577 -0.30049452 0.024772096 -0.074617825 1.0607212
1.5394467 0.43675974 0.15047845 -0.1548937 1.2301818 0.42969972 1.2817109 -0.7820663
-0.79094255 -1.2506318 1.1051023 1.0031767 0.33083168 0.779327 0.6663109 0.82839537
0.44931626 -0.9930626 1.3956652 0.5742127 0.36630142 1.1060908 -0.67958534 0.671312
0.573666 -2.1002579 1.2991383 0.4075959 0.41484544 1.0836898 -0.031294793 -0.78067577
-0.29100153 1.9059626 -0.2016343 -0.74453604 0.0009211861 0.14938428 -0.17734988 0.60166925
0.96347624 0.41136813 -0.8114463 0.18536253 -1.3814332 -0.8721264 0.47390625 -0.3175299
-1.2836988 -0.7888003 0.58870685 -0.43689463 0.32271108 -0.16056642 0.6306174 1.347684
-0.47841263 1.6971577 -0.04633831 0.8089845 -1.4237933 0.30715165 0.29342324 0.15871456
0.87862235 0.49938956 -1.0468277 -0.928967 -2.382132 0.019499298 1.6507282 -0.14861211
0.72975993 -0.3812714 0.92979455 0.13090646 -0.06610867 -0.6410601 0.71002746 -1.2940636
0.21895875 0.28865784 -0.22365615 0.29320225 -0.420735 -1.4082983 -0.09225805 0.5606614
0.6957786 1.6057404 -0.7134325 -1.7953223 -0.81156963 0.7073154 1.3255514 0.8845673
-0.425847 0.8666057 0.63484865 -0.635834 1.8362017 0.1480546 -0.94592094 0.54990536
1.8619406 0.48626497 0.19919433 0.5261825 0.15011339 -1.3074481 -0.94864494 -0.52347875
0.95410347 0.3513207 0.031009594 1.6669719 1.3684493 0.32612854 -0.25264117 0.0414189
-0.2619577 0.4425978 1.1001787 -0.16917942 0.6148919 0.19823904 -0.9603674 0.024194371
0.1994344 0.7403462 -0.10628853 0.8583774 -0.49556807 -0.0034609584 0.8945247 -2.0196438
1.2441013 0.34653512 0.117717855 0.547524 -0.38451222 1.4933574 -0.30847427 -0.58891976
0.23165154 -0.63693523 -1.0656036 1.4422418 0.16528946 1.3361197 -0.46756756 -0.46047196
-0.5301817 -0.33779866 -0.89757013 0.24820288 -0.81762385 0.1552113 0.85414433 -0.568543
-0.9155545 0.16853382 -0.26721781 3.0889795 0.083854765 0.5571614 -0.37218192 0.3934229
