test/mlp_states.pth (torch_old, 109697 bytes, 6 tensors)

linear1.weight f4 [20, 4]
-3.1844022 1.0332798 0.29670134 -0.02481289 2.4445221 0.6048632 0.8877673 -0.04326921
1.0708975 -1.9942572 -1.5219561 0.038185947 -0.69713026 -0.7502401 -1.2226346 0.23549192
-0.36925724 0.055127945 -1.3577831 0.010984846 -0.64389586 0.9068835 -2.2752247 0.8411858
1.1443862 -12.996136 -1.8270432 -0.545897 0.10570511 2.49758 -2.2202406 -0.15182881
1.0528009 -0.38242397 -0.18118347 -0.37994254 -1.3972946 -2.1467648 0.7509112 0.2601537
0.2144788 0.32345897 -4.2851005 -0.2974435 1.1527765 0.086283796 0.44989407 -0.20285185
0.13641948 0.252855 -0.07692628 -0.87680614 -0.43637225 -0.28344598 -1.4867095 0.018158535
-1.1858207 0.9432369 1.5299021 -0.10939426 -1.4143269 1.7947581 -1.1139402 -0.1692988
2.6495647 0.31366575 -1.5240058 -0.0030755117 1.2657145 -3.1721153 -0.73576903 -0.01893
1.3955835 2.3042545 -0.7455388 -0.05346955 -0.7564529 0.5623805 -0.41069856 -0.34227094
00000000: 3fcd 4bc0 8342 843f 3de9 973e 6744 cbbc
00000010: 0d73 1c40 51d8 1a3f b844 633f 0e3b 31bd
00000020: 2b13 893f d243 ffbf 75cf c2bf de68 1c3d
00000030: 2177 32bf bc0f 40bf 4a7f 9cbf cb24 713e
00000040: 490f bdbe d7cd 613d d6cb adbf c9f9 333c
00000050: 5cd6 24bf 8429 683f 489d 11c0 f457 573f
00000060: 3f7b 923f 2cf0 4fc1 8ddc e9bf e8bf 0bbf
00000070: ec7b d83d 5ad8 1f40 6c18 0ec0 0379 1bbe
00000080: 2ec2 863f 13cd c3be 2988 39be d487 c2be
00000090: 8dda b2bf 9864 09c0 b73b 403f de32 853e
000000a0: 55a0 5b3e 6a9c a53e 8b1f 89c0 844a 98be
000000b0: 2e8e 933f 8fb5 b03d 8458 e63e 65b8 4fbe
000000c0: 8cb1 0b3e 3676 813e 878b 9dbd 5e76 60bf
000000d0: 2f6c dfbe d51f 91be 7f4c bebf 35c1 943c
000000e0: f9c8 97bf f977 713f d5d3 c33f 190a e0bd
000000f0: aa08 b5bf a2ba e53f 9895 8ebf aa5c 2dbe
00000100: 7892 2940 cc98 a03e 9f12 c3bf 868e 49bb
00000110: ef02 a23f f003 4bc0 5c5b 3cbf 1613 9bbc
00000120: 7ba2 b23f e878 1340 a1db 3ebf e302 5bbd
00000130: e6a6 41bf 2bf8 0f3f 1547 d2be 233e afbe

linear1.bias f4 [20]
1.4576402 -2.810576 -0.27928537 -1.772692 3.5163496 -3.197298 -3.4578164 1.4800487
-1.832274 -3.7338338 4.7630367 -0.7933947 0.50735104 -1.3570273 -2.8258264 2.404945
1.7123469 2.899141 2.720042 2.5186024
00000000: f493 ba3f 7ae0 33c0 7efe 8ebe 92e7 e2bf
00000010: df0b 6140 88a0 4cc0 dd4c 5dc0 3c72 bd3f
00000020: f487 eabf 22f7 6ec0 cc6a 9840 ea1b 4bbf
00000030: c2e1 013f 12b3 adbf 57da 34c0 9eea 1940
00000040: 2f2e db3f 878b 3940 2b15 2e40 c830 2140

linear2.weight f4 [71, 20]
-0.18099047 -1.3637029 -0.39966467 -0.5749724 -1.5116832 -0.52813935 -1.0421178 0.6979527
-5.647134 -1.8580097 0.022796275 0.17397062 -0.48585278 -0.2673608 -0.31977803 -0.11037956
-1.6405971 0.65022093 -3.1186544e-06 0.07271321 -0.56252414 -2.07609 0.30911887 -0.4895882
1.7257054 0.18100971 0.6793523 -0.090517685 0.19749613 -0.6760151 1.6238143 -0.03730484
0.08350073 0.5600429 -2.6177268 0.30787256 0.30511338 0.12165064 1.0967348 0.25172687
-0.6527866 -1.9596857 -0.16830802 -0.27188426 0.3768562 -1.4002188 -0.1144251 -4.595959
0.054836642 -1.461473 -16.531641 -2.01832 -8.636274 0.0102934195 -8.0783615 1.860856
0.9135053 1.3410642 0.14747699 -2.2615495 -0.7371702 -2.3638146 0.04454163 0.77017206
-0.4643259 2.3141816 -0.105320536 0.099050894 -0.10140604 -0.1686651 0.2512684 -0.727815
0.013742284 -0.18991864 -1.9117974 0.16024539 -0.13793795 -1.2842646 -0.5616911 -0.027791506
-0.4608203 -0.14219278 0.13257347 -0.13689889 -0.09102787 -0.057269163 -0.25998455 -0.029683804
-0.19663765 -0.5644875 -0.09338678 -0.41143322 -0.42526552 0.082351595 -0.49438396 -0.17059976
-0.22352949 -0.24278316 -0.38126442 -0.29110172 -0.3511512 0.010165989 -0.09668217 -0.18322748
0.15934591 -0.050949164 0.06467363 -0.1028181 -0.12317356 -0.06029131 -0.015717981 -0.12702288
-0.20115273 0.21083687 0.12022881 -0.16260818 -0.07125965 -0.019037621 0.03415266 -0.3289967
0.7859074 1.9766484 -0.47248116 -0.18451914 2.97239 -0.19058788 -0.19691612 -5.557868
-0.42904642 -0.37809995 -2.4545748 -8.277936 -0.14850079 0.16376868 -4.8732224 1.8597584
2.1320405 1.256463 -0.21153119 -5.190014 -0.6982433 -1.0970129 -0.07101892 -0.043151814
-0.9470042 -0.06314917 -1.3291698 -0.7215758 -2.0839305 -1.2151312 -0.95849913 -1.2298586
-1.8767313 -0.21698765 -0.71774614 -1.5953754 -1.1660933 -1.934649 -2.0140078 -1.9582415
-1.0155846 -3.0273342 0.51702887 -0.44562545 2.8570726 0.17271988 -0.9167083 2.2315695
-1.511384 -0.15230298 0.006846522 -2.2032566 -0.115901224 0.42622662 -2.407062 0.17078313
2.3401263 0.12441708 -0.63118994 0.44725513 -0.2191403 -0.1334504 0.075792044 0.047427148
0.15154445 -0.06090352 0.017215163 -0.08827773 -0.1529994 -0.025103355 -0.20889436 -0.36752835
0.07702502 0.099061824 -0.11027352 -0.18265218 0.032705724 -0.15045315 -0.111450836 -0.1501048
1.224205 -0.12028101 -0.20424548 0.44579765 2.633107 -0.52977073 -1.4823009 0.5535527
-0.26608825 -0.5854515 -3.3104403 -0.7522617 -2.9427967 0.37841445 -0.30381313 0.23364864
0.4163592 0.9919609 0.48520732 -2.977172 -0.3769235 2.143951 0.14811426 -0.16498546
-2.2053301 0.20285726 -0.11387306 -0.11568746 -0.9442638 -0.5029181 -2.732026 0.028165523
-0.02899058 -0.21928017 -2.1964138 -1.0712296 -1.4623061 1.0720308 1.425307 0.3877976
0.9185234 -1.0025653 0.87880147 0.33060983 -4.1781178 -1.8027452 1.3884335 -1.2171161
1.5702837 0.47114384 1.0569668 0.054928977 0.17648314 -0.119815096 1.5794431 -0.098135725
00000000: 9155 39be d18d aebf d9a0 ccbe 6431 13bf
00000010: d67e c1bf 2434 07bf 1e64 85bf 07ad 323f
00000020: 52b5 b4c0 43d3 edbf 41bf ba3c 5b25 323e
00000030: b2c1 f8be 84e3 88be f2b9 a3be ae0e e2bd
00000040: 16ff d1bf e174 263f 134a 51b6 aaea 943d
00000050: 9501 10bf a9de 04c0 d444 9e3e 4eab fabe
00000060: eae3 dc3f 9c5a 393e 08ea 2d3f 5661 b9bd
00000070: 6d3c 4a3e 530f 2dbf 26d9 cf3f f6cc 18bd
00000080: 6e02 ab3d f95e 0f3f d688 27c0 79a1 9d3e
00000090: d237 9c3e f923 f93d ce61 8c3f 58e2 803e
000000a0: 061d 27bf fbd6 fabf f058 2cbe 6a34 8bbe
000000b0: 4cf3 c03e 5f3a b3bf b557 eabd 1912 93c0
000000c0: 639c 603d 8c11 bbbf cd40 84c1 282c 01c0
000000d0: 2e2e 0ac1 bba5 283c f840 01c1 8830 ee3f
000000e0: 7cdb 693f fea7 ab3f 3504 173e 3abd 10c0
000000f0: 30b7 3cbf bd48 17c0 4971 363d ff29 453f
00000100: 20bc edbe 8d1b 1440 4bb2 d7bd 32db ca3d
00000110: f8ad cfbd 8bb6 2cbe 40a6 803e 1552 3abf
00000120: 5127 613c 087a 42be c7b5 f4bf 5e17 243e
00000130: 9b3f 0dbe c862 a4bf fdca 0fbf 03ab e3bc
00000140: a3f0 ebbe fc9a 11be 57c1 073e 392f 0cbe
00000150: d26c babd 1293 6abd b21c 85be 732b f3bc
00000160: 615b 49be 4182 10bf 9141 bfbd 60a7 d2be
00000170: 67bc d9be f4a7 a83d e51f fdbe b4b1 2ebe
00000180: eae4 64be 269c 78be 1735 c3be 490b 95be
00000190: 17ca b3be 408f 263c 4d01 c6bd fc9f 3bbe
000001a0: 932b 233e 12b0 50bd 9c73 843d 4c92 d2bd
000001b0: 6b42 fcbd 05f4 76bd ffc2 80bc 4912 02be
000001c0: fbfa 4dbe 9fe5 573e 863a f63d c282 26be
000001d0: 94f0 91bd c9f4 9bbc a9e3 0b3d 4172 a8be
000001e0: 3a31 493f d102 fd3f 0de9 f1be 96f2 3cbe
000001f0: a33b 3e40 7829 43be 61a4 49be 0eda b1c0
00000200: f9ab dbbe 5196 c1be c117 1dc0 6d72 04c1
00000210: 9710 18be fab2 273e 70f1 9bc0 900c ee3f
00000220: 5a73 0840 c8d3 a03f a29b 58be 9814 a6c0
00000230: 13c0 32bf eb6a 8cbf 5e72 91bd f5bf 30bd
00000240: de6e 72bf 5a54 81bd 3c22 aabf 31b9 38bf
00000250: 1e5f 05c0 6b89 9bbf 3360 75bf 026c 9dbf
00000260: bb38 f0bf 0332 5ebe 36be 37bf 4335 ccbf
00000270: 8c42 95bf 94a2 f7bf 81e5 00c0 a8a7 fabf
00000280: adfe 81bf d8bf 41c0 015c 043f 0529 e4be
00000290: 47da 3640 7bdd 303e 65ad 6abf 09d2 0e40
000002a0: 0875 c1bf 50f5 1bbe ca58 e03b 2802 0dc0
000002b0: 9f5d edbd 603a da3e 4e0d 1ac0 c6e1 2e3e
000002c0: a1c4 1540 62ce fe3d aa95 21bf a0fe e43e
000002d0: 5166 60be 39a7 08be dc38 9b3d f842 423d
000002e0: 782e 1b3e f875 79bd d006 8d3c f4ca b4bd
000002f0: e0ab 1cbe 8da5 cdbc 67e8 55be ad2c bcbe
00000300: 4bbf 9d3d ede0 ca3d 15d7 e1bd 2c09 3bbe
00000310: 70f6 053d 6410 1abe 5640 e4bd 13b5 19be
00000320: c0b2 9c3f e455 f6bd ba25 51be 973f e43e
00000330: d384 2840 0e9f 07bf 09bc bdbf a1b5 0d3f
00000340: b83c 88be 26e0 15bf 41de 53c0 3994 40bf
00000350: c856 3cc0 8abf c13e 658d 9bbe 9741 6f3e
00000360: 082d d53e 26f1 7d3f 186d f83e fc89 3ec0
00000370: 1efc c0be 7e36 0940 44ab 173e f3f1 28be
00000380: 2124 0dc0 d0b9 4f3e 4736 e9bd 8ced ecbd
00000390: 46bb 71bf 3ebf 00bf 84d9 2ec0 62bb e63c
000003a0: a77d edbc fb8a 60be 0b92 0cc0 0d1e 89bf
000003b0: d92c bbbf 4e38 893f 7670 b63f 688d c63e
000003c0: 5924 6b3f 0f54 80bf 22f9 603f b145 a93e
000003d0: 24b3 85c0 5bc0 e6bf 30b8 b13f 76ca 9bbf
000003e0: 0eff c83f c439 f13e b04a 873f 35fd 603d
000003f0: ffb7 343e 9e61 f5bd 312b ca3f 62fb c8bd

linear2.bias f4 [71]
4.6499887 0.93532443 2.5260637 -1.0827832 -0.5244722 -0.26297307 0.49148396 -1.4871168
-0.9627818 -0.32246947 1.9093593 -0.953905 -3.5420306 2.7770352 1.1691352 -1.304608
0.9640567 -0.43751353 -0.12429004 5.915171 0.041089464 2.0163403 3.5122936 0.7734537
-3.197889 2.8265154 3.484883 -0.4073102 3.8880205 2.0648768 -0.4334874 3.8576074
0.7657062 -0.6065402 3.2388797 -0.21202652 -0.61619323 4.675122 3.8180096 -0.627424
-0.30432874 -2.9040918 -0.3004096 -0.22224782 3.3292246 0.3797681 -0.25146854 -0.58142155
-0.51688737 -0.21815437 2.14666 -0.26845914 -0.34324417 -0.104450874 -3.3744264 -4.0096803
-0.07740616 0.2165049 -0.27959904 -2.8776171 0.09502674 -0.76517034 0.8326076 0.17461653
-0.18262161 -0.13321123 -1.0756619 -0.35330844 3.8413477 1.3718449 -0.24792841
00000000: b5cc 9440 6c71 6f3f 07ab 2140 a498 8abf
00000010: cf43 06bf 68a4 86be c9a3 fb3e d859 bebf
00000020: de78 76bf b81a a5be e365 f43f 1e33 74bf
00000030: a1b0 62c0 f2ba 3140 39a6 953f 65fd a6bf
00000040: 6bcc 763f c601 e0be c78b febd 1549 bd40
00000050: 6d4d 283d b80b 0140 6bc9 6040 1001 463f
00000060: 37aa 4cc0 a1e5 3440 5308 5f40 f68a d0be
00000070: 54d5 7840 f126 0440 0ff2 ddbe 0ae3 7640
00000080: 5205 443f 3846 1bbf ce49 4f40 7b1d 59be
00000090: d7be 1dbf 999a 9540 455a 7440 dc9e 20bf
000000a0: fad0 9bbe a4dc 39c0 49cf 99be ef94 63be
000000b0: 0412 5540 f770 c23e 7cc0 80be 0bd8 14bf
000000c0: bb52 04bf dc63 5fbe e162 0940 7a73 89be
000000d0: b3bd afbe 57ea d5bd 9af6 57c0 4d4f 80c0
000000e0: 1f87 9ebd 76b3 5d3e 9b27 8fbe e12a 38c0
000000f0: 619d c23d 34e2 43bf c625 553f adce 323e
00000100: 2901 3bbe 8668 08be 4aaf 89bf d8e4 b4be
00000110: a4d8 7540 9d98 af3f f2e0 7dbe

linear3.weight f4 [355, 71]
-0.66508615 0.13647833 2.870707 -0.21326108 -0.13401434 0.10787012 0.47332567 0.47331238
0.9781204 -0.06646112 -0.06562388 -4.200337 -2.1911619 0.5346593 -0.9120639 -4.705366
-0.8198679 -4.955794 0.037713338 -0.17175227 0.9073748 -0.835694 1.5737174 0.81468487
1.406733 1.6516881 0.7824787 0.06509477 -1.097824 -7.205377 -0.13399485 2.042828
-1.1446953 0.0047575296 0.77620023 0.01873944 -0.0058390866 -3.5371063 -1.5426923 -0.21333337
-0.1485427 0.27825487 1.0914707 -0.11234292 -0.20797917 -0.9745045 -0.103410184 -0.040785972
-0.1411583 0.015646553 0.5841801 0.0058377273 -0.016164934 -0.20831414 -0.037599064 -0.5074688
0.09194176 0.8353648 0.00037300354 -0.31734255 -0.33660156 -1.4097857 -1.3048582 1.0744259
-0.09080396 -0.044428326 -0.10837858 -0.06698482 -0.28129715 2.9786682 -0.053645313 1.5243769
0.33687535 1.2518538 -0.77646047 0.0056284387 0.006428763 -2.6380248 0.45482972 1.0252677
0.037126888 -2.0085697 0.78672206 -0.9959323 1.4777601 0.037299708 -0.3145594 -0.24674925
-1.4992589 -0.044353 -0.51840705 0.14008194 -0.57307106 -2.0673535 1.7676188 3.7254653
-0.1654356 0.7129925 0.0052301134 -2.4175723 -3.2362344 0.43263003 0.28855744 -0.16742413
0.14327672 1.5677854 0.24417329 0.12817132 -3.155364 -2.058078 0.031693194 0.091318995
-4.7804575 1.0707521 0.23935218 0.40552783 -2.9257042 0.09283672 0.0044425987 0.08231917
0.03543807 0.8266454 -0.16914146 0.57567185 -0.23751284 -0.81018436 -1.2022524 -0.01563979
0.90107983 0.32658494 -2.109117 0.23034196 0.36133784 0.841882 0.77628416 -0.07789357
-0.3512574 0.10446333 0.048693873 0.13292128 -2.0038617 0.26024145 -2.009807 -1.0981324
0.034294184 -0.44150448 -0.079467356 -0.017098831 5.200005 0.17874014 -0.12794416 0.054895222
-1.9834583 -1.1626236 0.5635068 -0.8444023 -0.66865915 -1.6154094 -2.1997328 1.2547698
-0.013507196 -1.0395154 0.8775125 -1.7870783 -0.6906888 0.084587455 -1.4391187 1.5356888
0.9142837 0.08302875 -1.5846211 -1.5562558 -0.20111564 -0.44399333 -4.4322057 0.06794958
-1.7359153 0.41575587 0.14271353 -1.3004787 0.023956269 -0.103428595 -0.060318004 0.511182
-6.406854 0.21920241 -3.63416 -0.7400345 0.04654912 0.30314168 -0.3094522 0.26414266
1.1593069 -0.20805906 -0.038359154 -0.7593906 0.03325081 -0.4539522 0.19827698 0.22398888
0.16341853 -0.2433067 -0.29079714 -1.3237007 1.0837526 -0.05627551 0.21443033 0.108070664
-0.01925868 0.17194381 -0.25097832 0.25926003 0.060188245 -0.08182776 -0.02709352 -0.1886799
0.027959945 -0.055610757 0.04466651 -0.04483521 0.073838376 -0.18286264 -0.0915643 -0.07765382
-0.24183428 -0.07324406 -0.28180742 -0.02622547 -0.08429403 -0.11567629 -0.16646637 -0.06395783
-0.10904368 0.0056169005 -0.02767273 0.105587475 -0.1683849 -0.03380866 0.033151656 -0.18656394
-0.053249616 -0.28445002 -0.077989414 -0.2590334 -0.25137657 -0.11190235 -0.1700955 -0.063125655
-0.040051956 -0.07038227 -0.16697074 -0.06778435 -0.036666475 -0.07631904 -0.2947865 0.08238416
00000000: 1643 2abf fac0 0b3e aab9 3740 1d61 5abe
00000010: 0e3b 09be 02eb dc3d be57 f23e 0056 f23e
00000020: 1966 7a3f c51c 88bd d065 86bd 2969 86c0
00000030: ff3b 0cc0 6fdf 083f 057d 69bf 5c92 96c0
00000040: dde2 51bf dd95 9ec0 4d79 1a3d d4df 2fbe
00000050: b749 683f 0bf0 55bf 926f c93f 308f 503f
00000060: d40f b43f 846a d33f 8650 483f 6850 853d
00000070: 7f85 8cbf 7392 e6c0 f235 09be b2bd 0240
00000080: 6085 92bf 0de5 9b3b 0fb5 463f 7483 993c
00000090: cf55 bfbb f35f 62c0 f176 c5bf 1074 5abe
000000a0: 941b 18be 6c77 8e3e 50b5 8b3f 0b14 e6bd
000000b0: 7ef8 54be 2079 79bf b8c8 d3bd 310f 27bd
000000c0: cd8b 10be 332d 803c d48c 153f 684a bf3b
000000d0: 536c 84bc 4d50 55be 7a01 1abd 7ae9 01bf
000000e0: f64b bc3d 78da 553f b08f c339 b97a a2be
000000f0: 0a57 acbe dc73 b4bf 9805 a7bf ca86 893f
00000100: 6df7 b9bd 7afa 35bd 97f5 ddbd 562f 89bd
00000110: 2e06 90be 80a2 3e40 30bb 5bbd c81e c33f
00000120: ed7a ac3e bf3c a03f 1dc6 46bf c46e b83b
00000130: 5fa8 d23b 66d5 28c0 71df e83e f93b 833f
00000140: 5d12 183d 688c 00c0 9e66 493f 6bf5 7ebf
00000150: 3e27 bd3f 94c7 183d ee0d a1be d6ab 7cbe
00000160: b7e7 bfbf 7eab 35bd 53b6 04bf a471 0f3e
00000170: c9b4 12bf 854f 04c0 5541 e23f 066e 6e40
00000180: f367 29be ad86 363f 5f61 ab3b 81b9 1ac0
00000190: 771e 4fc0 af81 dd3e cdbd 933e 3b71 2bbe
000001a0: 22b7 123e 31ad c83f 9008 7a3e 583f 033e
000001b0: 7cf1 49c0 8db7 03c0 b9d0 013d 7405 bb3d
000001c0: 82f9 98c0 680e 893f bd18 753e 58a1 cf3e
000001d0: bd3e 3bc0 2e21 be3d 3893 913b f496 a83d
000001e0: 8227 113d 089f 533f 6b33 2dbe 3b5f 133f
000001f0: 9136 73be 3e68 4fbf 68e3 99bf 041f 80bc
00000200: 2bad 663f 2436 a73e c6fb 06c0 c3de 6b3e
00000210: 4601 b93e 9485 573f 8fba 463f aa86 9fbd
00000220: 03d8 b3be dff0 d53d 3a73 473d 841c 083e
00000230: 453f 00c0 5e3e 853e aea0 00c0 9a8f 8cbf
00000240: 0f78 0c3d e00c e2be c8bf a2bd d912 8cbc
00000250: 7166 a640 a807 373e cb03 03be d0d9 603d
00000260: f6e1 fdbf dad0 94bf fb41 103f c02a 58bf
00000270: 3f2d 2bbf bcc5 cebf 6cc8 0cc0 4c9c a03f
00000280: 494d 5dbc d70e 85bf a9a4 603f fbbe e4bf
00000290: fbd0 30bf 303c ad3d 0b35 b8bf 7391 c43f
000002a0: 7f0e 6a3f fa0a aa3d ddd4 cabf 6433 c7bf
000002b0: 42f1 4dbe 1853 e3be a1d4 8dc0 2629 8b3d
000002c0: 7932 debf f4dd d43e 7f23 123e 1676 a6bf
000002d0: f03f c43c 5fd2 d3bd 0310 77bd d3dc 023f
000002e0: f304 cdc0 9976 603e 1496 68c0 e772 3dbf
000002f0: 4aaa 3e3d 6335 9b3e 8570 9ebe b53d 873e
00000300: 2b64 943f 6f0d 55be 7d1e 1dbd 6c67 42bf
00000310: 0032 083d 6c6c e8be 1f09 4b3e 575d 653e
00000320: 3057 273e 6425 79be 5de3 94be 066f a9bf
00000330: 68b8 8a3f 2681 66bd a093 5b3e 2754 dd3d
00000340: 61c4 9dbc 0a12 303e 3b80 80be bbbd 843e
00000350: f387 763d 5095 a7bd 3bf3 ddbc 4e35 41be
00000360: 410c e53c 1bc8 63bd 3bf4 363d 20a5 37bd
00000370: 9338 973d 5840 3bbe 1086 bbbd f708 9fbd
00000380: 68a3 77be fb00 96bd 1049 90be ccd6 d6bc
00000390: 59a2 acbd b1e7 ecbd 2976 2abe 53fc 82bd
000003a0: 4b52 dfbd fa0d b83b ecb1 e2bc 3f3e d83d
000003b0: 176d 2cbe f37a 0abd 08ca 073d 9e0a 3fbe
000003c0: 451c 5abd 6fa3 91be eab8 9fbd 07a0 84be
000003d0: 6eb4 80be 0f2d e5bd 842d 2ebe 0648 81bd
000003e0: 850d 24bd 9424 90bd 61fa 2abe 85d2 8abd
000003f0: 962f 16bd 284d 9cbd 42ee 96be 07b9 a83d

linear3.bias f4 [355]
-4.5345716 -0.65656984 -2.0647957 -0.18184444 -4.014683 -0.16161579 -0.72977805 1.3058599
-2.3515809 -1.6580331 -0.28518078 -0.054821722 -0.15210871 -0.23430955 -3.5695128 -1.52333
1.7872695 -0.090320826 -1.0866464 0.23263912 -1.2669566 3.2060523 -0.27969065 0.05476812
0.13402613 -1.8015684 0.502693 -0.21241593 2.8149316 -2.765572 -0.788541 -0.696421
-0.18004183 -0.4579176 -0.48220402 -0.08920151 2.9506822 2.3828278 2.4918792 -0.64699733
-0.11157209 0.9158644 -1.8866824 -0.66410464 -0.09367678 -1.7607715 -0.17957763 -0.21446799
-0.028010134 -0.41033518 -0.1956227 3.6626756 -2.2201853 2.7118087 -0.051587418 0.6694397
-0.9626315 -0.06792259 -0.18096642 -0.24953534 -0.11979654 -0.7640345 -0.12990373 -0.036190603
0.86627394 -0.22944488 -0.36639294 -0.4153103 0.056863833 -2.030484 -2.9168382 4.742753
-0.2323983 -3.5631247 -0.22647227 -0.14110917 -1.7562165 -0.36400634 -0.25219467 -2.9963577
-0.086086854 -4.1355925 -0.18763818 -0.17454672 -0.29721606 -5.348692 -0.18236527 -0.043884903
-0.08348417 -0.27708116 -0.24189821 -0.25473818 -0.17885259 -0.18628027 3.7014768 0.76992506
-0.2480518 0.0014421771 -0.14400628 -1.7262021 -0.16233605 -0.17751901 -0.22437525 -0.1521367
-0.42244488 0.924508 -0.058422036 -0.26723626 -2.724049 -0.2620238 -0.15270142 -0.06401798
-0.27370566 -0.9409811 -0.017112326 -2.1001503 -0.1490257 -0.10524166 -0.023814121 -0.30697122
-0.19170478 -0.16628276 3.7978525 -0.18575041 -0.29975092 -0.4615732 -0.31983438 -0.54202044
-1.0910597 -0.16509293 -0.14192247 -0.09196267 -0.15955357 0.13525046 -0.007907335 -0.2868291
-0.30958694 -0.3205911 -0.10767812 -0.24883427 -0.26124647 -0.31367195 -0.85757184 0.0038401422
-0.14500801 -0.3029754 -0.14640193 -0.40833405 -0.061952766 -0.3058861 -0.26480663 -0.1516933
-0.3240145 -0.13772708 -0.21642473 -0.10975544 -0.316861 -0.30008003 -0.123569645 -0.15776208
-0.1473031 -0.1879449 -0.40142682 -0.11717979 -3.0149655 -0.2975899 -0.19783801 -0.19726135
-1.8049642 -0.33781996 0.29202825 -0.76642376 1.3756883 -0.76969963 1.3338448 -0.21492386
-0.73447734 -0.10257114 -0.0894429 -0.2624698 -0.150088 -2.7351344 2.4934435 -0.14025754
-0.19010982 -2.6340778 -3.7980268 -0.30434263 -0.19001141 -1.309065 -0.006924574 -0.16313507
0.16975021 2.2488558 1.4350523 -0.19030407 -0.35525227 -0.1949419 -0.35204422 -0.2733077
-0.027219927 -0.14702906 -0.22055982 -0.11182963 -0.2390109 -2.8322124 -1.4049557 -0.06277857
-1.8956152 -0.18340783 -0.22297934 -0.1500612 -0.13255493 -3.2184827 -3.0334897 -0.32137927
-0.01676851 -0.22661902 -0.2920775 -0.61434686 1.3165828 -0.5986165 -0.027365863 -0.10048236
-0.27315617 -0.05143497 -0.17166753 -0.09520119 -0.16408063 -0.2826552 3.6238697 -0.2306581
-0.30384922 -0.12427143 -0.24724819 -1.852363 2.5766757 -0.25630894 -0.51098424 0.594435
-0.18394543 -0.20093367 -0.04568066 -0.12004934 -0.27132663 0.7198438 -0.13589539 -0.024230191
-0.064112656 -0.1906095 -2.2897518 3.6607606 1.2084428 -0.1858814 -4.3110976 -0.029343529
00000000: 361b 91c0 f614 28bf 9d25 04c0 6e35 3abe
00000010: 4878 80c0 9c7e 25be bcd2 3abf 6b26 a73f
00000020: 4d80 16c0 6e3a d4bf 3703 92be be8c 60bd
00000030: 63c2 1bbe d8ee 6fbe e672 64c0 7afc c2bf
00000040: 3fc5 e43f 20fa b8bd 3b17 8bbf f338 6e3e
00000050: a22b a2bf f62f 4d40 9d33 8fbe 8954 603d
00000060: 253e 093e cb99 e6bf 7db0 003f 9083 59be
00000070: d727 3440 22ff 30c0 d3dd 49bf a648 32bf
00000080: e35c 38be 2d74 eabe 72e3 f6be 48af b6bd
00000090: fad7 3c40 4080 1840 f37a 1f40 9ea1 25bf
000000a0: e87f e4bd 1776 6a3f cf7e f1bf c302 2abf
000000b0: 9dd9 bfbd f660 e1bf 33e3 37be 7f9d 5bbe
000000c0: 8275 e5bc 7417 d2be 5151 48be 4769 6a40
000000d0: 8417 0ec0 468e 2d40 544d 53bd 6660 2b3f
000000e0: 056f 76bf 001b 8bbd 434f 39be 3186 7fbe
000000f0: e357 f5bd c497 43bf 7c05 05be 993c 14bd
00000100: 21c4 5d3f 99f3 6abe db97 bbbe 8da3 d4be
00000110: 0dea 683d 73f3 01c0 7aad 3ac0 a2c4 9740
00000120: d2f9 6dbe 3c0a 64c0 59e8 67be ec7e 10be
00000130: b4cb e0bf 0a5f babe a91f 81be 53c4 3fc0
00000140: 4e4e b0bd c656 84c0 3924 40be 60bc 32be
00000150: b42c 98be 7c28 abc0 f6bd 3abe a8c0 33bd
00000160: c0f9 aabd 95dd 8dbe 2ab4 77be 0b6d 82be
00000170: 2225 37be 41c0 3ebe ffe4 6c40 cf19 453f
00000180: 4b01 7ebe 6f07 bd3a 6276 13be 31f4 dcbf
00000190: 6c3b 26be 8bc7 35be a0c2 65be b9c9 1bbe
000001a0: b24a d8be 8eac 6c3f f24b 6fbd 31d3 88be
000001b0: d256 2ec0 fc27 86be c35d 1cbe dc1b 83bd
000001c0: 2623 8cbe 23e4 70bf 262f 8cbc dd68 06c0
000001d0: 319a 18be f088 d7bd d515 c3bc 552b 9dbe
000001e0: 424e 44be 0746 2abe 0410 7340 5b35 3ebe
000001f0: f478 99be 5353 ecbe 55c1 a3be dac1 0abf
00000200: d8a7 8bbf 1f0e 29be 2054 11be ed56 bcbd
00000210: 0362 23be 197f 0a3e c48d 01bc 44db 92be
00000220: 2e82 9ebe 8424 a4be 5986 dcbd 69ce 7ebe
00000230: 19c2 85be 9c99 a0be d489 5bbf e5aa 7b3b
00000240: fb7c 14be 971f 9bbe 63ea 15be 2911 d1be
00000250: 2fc2 7dbd 1a9d 9cbe bc94 87be 7d55 1bbe
00000260: 3be5 a5be 5408 0dbe 729e 5dbe 76c7 e0bd
00000270: 9b3b a2be 17a4 99be 1512 fdbd 628c 21be
00000280: a0d6 16be a174 40be d187 cdbe f5fb efbd
00000290: 32f5 40c0 b45d 98be 0c96 4abe e1fe 49be
000002a0: 1109 e7bf bdf6 acbe ba84 953e 5934 44bf
000002b0: 8e16 b03f 090b 45bf 6dbb aa3f 0015 5cbe
000002c0: b506 3cbf d110 d2bd d72d b7bd 7162 86be
000002d0: abb0 19be 710c 2fc0 9494 1f40 ac9f 0fbe
000002e0: 26ac 42be bb94 28c0 df12 73c0 ccd2 9bbe
000002f0: 5a92 42be 718f a7bf 89e7 e2bb e10c 27be
00000300: 00d3 2d3e 41ed 0f40 cbaf b73f 12df 42be
00000310: a0e3 b5be d99e 47be 243f b4be fdee 8bbe
00000320: 53fc debc c98e 16be 6fda 61be ef06 e5bd
00000330: 46bf 74be f842 35c0 97d5 b3bf 0d92 80bd
00000340: 85a3 f2bf 43cf 3bbe b254 64be a5a9 19be
00000350: 7bbc 07be 9ffb 4dc0 b224 42c0 d38b a4be
00000360: 1d5e 89bc d10e 68be 2f8b 95be d645 1dbf
00000370: c985 a83f ee3e 19bf 602e e0bc b2c9 cdbd
00000380: 20db 8bbe 7aad 52bd 9dc9 2fbe d7f8 c2bd
00000390: c104 28be 2fb8 90be 7bed 6740 a331 6cbe
000003a0: 2092 9bbe 0582 febd a12e 7dbe 3b1a edbf
000003b0: 41e8 2440 ed3a 83be ddcf 02bf e42c 183f
000003c0: 315c 3cbe 8ec1 4dbe a51b 3bbd 6edc f5bd
000003d0: 53eb 8abe af47 383f 2928 0bbe 657e c6bc
000003e0: 7f4d 83bd 232f 43be 4b8b 12c0 e749 6a40
000003f0: 41ae 9a3f b257 3ebe 83f4 89c0 d761 f0bc
