test/s2v_embedding_states.pth (torch_old, 14616 bytes, 1 tensors)

weight f4 [355, 10]
00000000: b328 ab3f fdc7 98bf c51c b3be 4e34 82be
00000010: 08b4 4fbf a616 1cbe a63e 4f3f feef a5bf
00000020: bd14 a5bf ea89 eb3e 4593 67bf 3555 533e
00000030: 6483 e6be 76bc bebf 6343 dabf 5485 143f
00000040: a7ab e83e fbff b93e bd0d 483f c9d1 99bf
00000050: 6769 3a3f f2c3 cc3e b2d3 22bf 9028 4cbf
00000060: 32f4 94bf d775 6a3e 039d 19be 3f04 f1be
00000070: 1975 c53f 0db2 553f dbb3 1cbf aba4 b93d
00000080: 85eb 47be e04c 94be 7206 533f 6288 acbb
00000090: fc74 f9bf ed42 57bf 8629 3d3f ecac 1a3f
000000a0: 2183 60bf 09dc 893e 0004 b1bf e40d 3f3f
000000b0: 8f0f ed3f 231d aebf 0f31 87bd e03f 92be
000000c0: 6bb3 463f 1ef0 863f 4af0 253e c88b e43f
000000d0: c361 93bf b14f a73a 6c6a 6ebd 6ab7 46bf
000000e0: e474 0ac0 5f93 39be e407 c43e 9f70 cb3f
000000f0: 9803 093e bc62 bd3e 260d 88bf 05dd 0dc0
00000100: 0bb0 b5be 050f 9ebe ba54 ce3e bf18 1f40
00000110: 5993 46bf 8bce 693f 5411 eabf 81cb d5be
00000120: 14a3 03c0 b36d 4fbe d7c7 523e 60f2 b63f
00000130: 5c95 5c3f bd08 6a3f 7bce a83e 35a7 22bf
00000140: e8fc 27bf 6eac 853b 6ecd 2e3e 3cac 19bf
00000150: 204f c3be 6091 213f 8723 343c 6bff 013f
00000160: a76d 813f 8721 37bf 674a bebf 4fff 13be
00000170: 612b 95bd 5ec8 86bf 2dba 993c b207 1dbf
00000180: c577 793e 0ccc f0bd 4c0d e5bf 0276 bcbf
00000190: e2f1 b93e 9091 87bd 213b a63f 45e0 943e
000001a0: 2a2b c7bd 0ac7 9e3f 420c 9bbc 87dc 383e
000001b0: 700a 1e3e 70d7 8dbf 6172 a23f 1879 5f3f
000001c0: 54c1 e53f 4fae 603e 25a3 01c0 e05b 3b3f
000001d0: 5e5b a23e 8361 aebe e4d0 8f3f e7a1 c73f
000001e0: 3969 acbf 0850 d0bf c41c 123e 3c87 e63e
000001f0: 4912 b0ba cb66 003f d754 fbbf 9e9d 38bf
00000200: bcab 2cc0 9d89 8abf 5c46 7c3f 5872 413f
00000210: 5c03 9bbe 55a6 3f3e 8d51 dfbf 6254 c63f
00000220: a8e9 523e d6b0 2f3f e558 d33f dbf7 4d3f
00000230: f3cf 65bf 8724 483f 65dd c0be b4e6 0fbf
00000240: 5774 d5be 2b70 8b3e 997f b03f 1d2a 86bf
00000250: b492 4dbf 63d0 ddbf 94be 76be b4e8 86be
00000260: ea69 bd3e 2929 0c40 b909 a7bf 3d2d a43f
00000270: d4c9 58be ba61 db3f 94d3 193f c910 febe
00000280: a25b 5e3f ecc7 4f3d 12cc a9bd 80ff 633f
00000290: 8ed0 7abe 32f8 15be 92b9 483f 26fa 4abf
000002a0: ef72 643e 2640 893f 5a91 d2be a4cf 72be
000002b0: 9a6b 4c3f b3c8 243f f704 d13e 2c83 0d3d
000002c0: b6f3 903f 6874 113f e943 cb3f d46e 8bbd
000002d0: c88b a53f 4a54 133e 3d5b 0540 f3a3 dfbf
000002e0: 4516 393e 54e0 07bf 6a77 e63e fde5 533e
000002f0: ace1 793e 7341 583f 458d 1bbe 83f9 9bbf
00000300: 9eee 3c3f 80f0 a63f 0209 243d cafe ce3e
00000310: b1f4 56bf 2645 f43f 121a 24c0 466c e3be
00000320: afaf 8a3e d59d 903f 2401 0bc0 e8c7 1c40
00000330: b763 04bf 12e9 f73d 997e f3be 80ad 8dbf
00000340: e1d6 e83d 947a 2fbf 2d54 f43d a186 1cc0
00000350: eba9 f23e 0958 8a3f a0ca 453e 6b0b d83f
00000360: 04e9 203e 7292 8b3f 57fe ce3d d7ee 53be
00000370: 9e65 62bf 1c88 d73f b5d6 593f 4644 2f3f
00000380: 6607 b1be cded d83f 4a31 36bf 2594 e6bd
00000390: 54ca 4a3f 3530 54bd 8a9c 953f cb4b ccbe
000003a0: fcf4 96bf a715 a33f c467 aebf bac5 b93f
000003b0: 47eb d9bf 5f9c 263f 318a d33e f164 aa3f
000003c0: 9af4 8fbf c691 8b3f 3366 19bf b75a 063f
000003d0: da90 18c0 dfb6 0b3e 0dff c0be ae56 933f
000003e0: 30ba d23d c6da 283e baf4 0440 64eb 153f
000003f0: 67f5 b63d be92 823f 0ec2 f0bc b1e9 bcbe
1.3371795 -1.1936032 -0.34982887 -0.2543053 -0.8113408 -0.15243015 0.8095497 -1.2963865
-1.2896954 0.46003658 -0.9045909 0.20637973 -0.45022118 -1.4901264 -1.7051815 0.5801594
0.4544346 0.3632811 0.7814596 -1.2017146 0.7281708 0.39993244 -0.6360427 -0.79749393
-1.1637022 0.22896515 -0.15001301 -0.47073552 1.542636 0.8347481 -0.6121194 0.09064611
-0.19523437 -0.289649 0.8243171 -0.0052652815 -1.9488826 -0.84086496 0.73891485 0.6042011
-0.87700087 0.26925686 -1.3829346 0.7463057 1.8520373 -1.3602642 -0.06601154 -0.28564358
0.7761752 1.0542028 0.16204944 1.7855158 -1.151421 0.0012764839 -0.05820696 -0.7762362
-2.1633844 -0.18122624 0.3828727 1.5893744 0.13380277 0.3698939 -1.0629013 -2.216615
-0.35485873 -0.30870834 0.40299016 2.4858854 -0.77568585 0.91330785 -1.8286538 -0.41756824
-2.0568285 -0.2025669 0.20584045 1.4292717 0.86165404 0.91419584 0.32970032 -0.6353639
-0.6562028 0.004079393 0.17070553 -0.60028434 -0.38146305 0.6311245 0.0109947985 0.5078036
1.0111588 -0.71535534 -1.4866456 -0.14452861 -0.072836645 -1.0529897 0.018765533 -0.6133987
0.24362095 -0.11757669 -1.7894683 -1.4723513 0.36317354 -0.06619561 1.2986795 0.29077354
-0.0972503 1.2404492 -0.018926743 0.18052875 0.15433669 -1.1081371 1.2691156 0.8729415
1.7949624 0.21941493 -2.0255826 0.73187065 0.31710333 -0.3405877 1.1235623 1.5596284
-1.3469611 -1.6274424 0.14268786 0.4502505 -0.0013433184 0.5015685 -1.9635266 -0.72115505
-2.6979818 -1.0823246 0.9854486 0.755651 -0.30276 0.18715794 -1.7446762 1.5494502
0.20596945 0.68629205 1.6511503 0.8045632 -0.8977043 0.78180736 -0.3766891 -0.562114
-0.41690323 0.27234015 1.378894 -1.0481602 -0.80301976 -1.732922 -0.24096137 -0.26349413
0.3699487 2.1900122 -1.3049842 1.2826306 -0.21170741 1.7139199 0.6008847 -0.4962218
0.8685857 0.05072777 -0.082908764 0.8906174 -0.2449362 -0.1464546 0.7840816 -0.79287946
0.22309469 1.0722702 -0.4112652 -0.23712021 0.79851687 0.6436874 0.408241 0.034548923
1.1324375 0.56818247 1.58801 -0.06808248 1.2933283 0.14387622 2.0836937 -1.7471908
0.18074901 -0.5307667 0.4501298 0.20693202 0.24402493 0.8447487 -0.15190609 -1.218552
0.738016 1.3042145 0.040047653 0.40428764 -0.8396712 1.9083602 -2.5640912 -0.44418544
0.2708716 1.1298167 -2.1719446 2.4497013 -0.5171465 0.121050015 -0.47557524 -1.1068573
0.1136911 -0.68546414 0.11930118 -2.445717 0.47395262 1.0808116 0.19315577 1.6878484
0.15713888 1.0904067 0.10107105 -0.20696579 -0.88436306 1.6838412 0.8509324 0.6846355
-0.34575957 1.6947571 -0.7116896 -0.11258725 0.7921498 -0.051803786 1.1688397 -0.39901575
-1.1793513 1.2740983 -1.3625417 1.4513466 -1.7024926 0.65082353 0.4131637 1.3312055
-1.1246521 1.0903862 -0.5992157 0.5248217 -2.383841 0.13643979 -0.37694588 1.1510828
0.10289419 0.16489705 2.077437 0.585623 0.089335255 1.0201032 -0.029389407 -0.36897042
