test/seq2seq_states.pth (torch_old, 38602 bytes, 15 tensors)

encoder.input_embedding.weight f4 [10, 4]
0	0xbecb8038	-0.3974626
1	0xbebee3e2	-0.37283236
2	0xbee2faae	-0.44331878
3	0x3e8e7ccd	0.2782959
4	0xbeeeaacb	-0.4661468
5	0xbeaa4347	-0.33254454
6	0x3f9acdc3	1.2094043
7	0x3e27d34a	0.16389194
8	0x3eada5f5	0.33915678
9	0x3f004e2c	0.5011928
10	0xbec31b9d	-0.38107005
11	0xbf81dcb3	-1.0145477
12	0xbf00e514	-0.50349545
13	0x3d7bece1	0.061505202
14	0xbe6ae4a2	-0.22938779
15	0xbe629062	-0.2212539
16	0x3e99f0e8	0.3006661
17	0xbe7f8704	-0.24953848
18	0x3ed81ed8	0.42211032
19	0x3f17bc40	0.5927162
20	0xbeea3b87	-0.4574854
21	0xbd4c028c	-0.049807116
22	0xbec6557a	-0.38737088
23	0x3db05284	0.086094886
24	0x3ea56d20	0.32309818
25	0x3fb2b0a4	1.3960156
26	0x3f80a394	1.004992
27	0xbf067303	-0.52519244
28	0x3fa0ee11	1.2572652
29	0xbf6cbb6c	-0.92473483
30	0x3ef8aaf1	0.48567918
31	0x3cdcc15f	0.026947675
32	0xbe51544b	-0.20442311
33	0xbe709be5	-0.23496969
34	0xbe9cd99f	-0.30634782
35	0x3e3928fb	0.18082039
36	0xbe474655	-0.19460423
37	0xbfcb651d	-1.5890232
38	0x3ece01d3	0.40235767
39	0xbeedd224	-0.46449387

encoder.input_embedding.bias f4 [10]
0	0xbf1528ac	-0.58265185
1	0xbfbb7a2c	-1.4646659
2	0xbeb5dccb	-0.35520014
3	0xbf848f15	-1.0356165
4	0xbf9a3519	-1.2047454
5	0xbf073273	-0.52811354
6	0xbe8fb292	-0.28065926
7	0xbebf39f7	-0.3734891
8	0xbeea7a42	-0.457964
9	0x3ee37612	0.44426018

encoder.rnn.weight_ih_l0 f4 [30, 10]
0	0x3e020ad9	0.1269945
1	0xbf3f7b9f	-0.74798006
2	0x3ea5cd3c	0.32383144
3	0xbe72249a	-0.23646775
4	0xbf495886	-0.786507
5	0x3d95d544	0.07316068
6	0xbe8b63ad	-0.27224484
7	0xbf1df183	-0.6169664
8	0xbeeda35b	-0.46413693
9	0xbf3d6cf1	-0.73994356
10	0xbecb65fd	-0.39726248
11	0xbe08e1c0	-0.13367367
12	0x3ca27a85	0.019833812
13	0xbe8de8fb	-0.27716812
14	0x3e0aec08	0.13566601
15	0xbc29cc6f	-0.010363682
16	0x3e1c9018	0.15289342
17	0x3e96376c	0.2933916
18	0x3ec5cc7d	0.38632575
19	0xbe2a1b8c	-0.16612071
20	0xbe8b245f	-0.27176186
21	0x3ea1b885	0.3158609
22	0x3f34f305	0.7068332
23	0xbf33dc83	-0.7025835
24	0x3f460ca5	0.77363044
25	0xbd800b6e	-0.0625218
26	0x3ea22f55	0.31676736
27	0x3f3e15a7	0.7425179
28	0x3e2216c5	0.15828998
29	0xbe36d4ef	-0.17854665
30	0x3ebdc4d2	0.37064224
31	0xc026dc80	-2.6072083
32	0xbf2b8be3	-0.67010325
33	0xbeb05f04	-0.3444749
34	0x3e787db3	0.242667
35	0x3f3e06d5	0.74229175
36	0xbfa50d43	-1.2894672
37	0xbf2f1862	-0.6839658
38	0x3efcb564	0.4935714
39	0xc010e477	-2.2639444
40	0xbf08fcf8	-0.53511
41	0x3fa81470	1.3131237
42	0xbf38bd27	-0.72163624
43	0xbd9e0d8f	-0.0771743
44	0x3e3dcd5c	0.1853537
45	0xbf38305e	-0.719488
46	0x3f0348d3	0.51282996
47	0xbd6982ff	-0.057009693
48	0xbe87acf5	-0.26499143
49	0x3f27ccf6	0.6554712
50	0xbd96b021	-0.07357813
51	0xbf27da41	-0.65567404
52	0xbe361b34	-0.17783815
53	0x3ebb754d	0.3661293
54	0x3ed81edf	0.42211053
55	0x3e118224	0.14209801
56	0x3ec3f6c6	0.3827421
57	0x3ec8f915	0.39252535
58	0xbebe1272	-0.37123448
59	0xbf92d9e2	-1.1472743
60	0xbec3a4cd	-0.3821167
61	0xbfce247d	-1.6104885
62	0x3d2c31ca	0.04203967
63	0x4004e03a	2.0761857
64	0xbe0b3733	-0.13595276
65	0x3e525036	0.2053841
66	0xbda1a67d	-0.07893083
67	0xbe56ff9c	-0.20995945
68	0x3e4372e2	0.19086793
69	0xbe0e1923	-0.13876776
70	0xbefbc04b	-0.49170145
71	0x3f066807	0.52502483
72	0xbed8b984	-0.42329037
73	0xbf300e62	-0.68771946
74	0xbebc03ed	-0.36721745
75	0xbe9dde85	-0.3083383
76	0x3e7006cf	0.23440097
77	0xbcf8e12c	-0.030380808
78	0xbedb81c9	-0.42872456
79	0xbe90d54c	-0.28287733
80	0x3e8678ac	0.2626394
81	0xc0bb4ff7	-5.8535113
82	0xbfa4026f	-1.2813243
83	0xbf4ecd1d	-0.8078173
84	0xc06d44ca	-3.7073236
85	0xbe8ca47d	-0.27469245
86	0xbfd56a5f	-1.6673087
87	0xbf9cd52f	-1.2252558
88	0xbdc1e24a	-0.09466989
89	0xbea854e8	-0.32877278
90	0xbe379953	-0.17929582
91	0x3ed8afd1	0.42321637
92	0xbf18403d	-0.5947302
93	0x3f22e6fc	0.63633704
94	0xbc8809a5	-0.016606161
95	0x3e5c3071	0.21502854
96	0x3effd1bc	0.49964702
97	0x3f238706	0.63877904
98	0xbecc7493	-0.3993269
99	0xbf6c1932	-0.92225945
100	0xbda11a52	-0.07866348
101	0xbe32016e	-0.17383358
102	0xbf811531	-1.0084592
103	0xbf6f016d	-0.9336155
104	0x3e873591	0.26408055
105	0xbeb7156b	-0.35758528
106	0xbe674ae3	-0.22587161
107	0xbeff0cad	-0.49814358
108	0xbd9a7b59	-0.07543058
109	0xbf54ba82	-0.8309709
110	0xbccb85fb	-0.02484416
111	0x3e89b6ab	0.26897177
112	0x3e780f33	0.24224548
113	0x3ee5abdd	0.44857684
114	0x3ed859ba	0.42255956
115	0x3efc5d8e	0.49290127
116	0xbd88edfa	-0.066860154
117	0x3e3a7f75	0.18212683
118	0x3dcf7993	0.1013061
119	0xbe9af949	-0.30268314
120	0xbee68214	-0.45021117
121	0xbf0b2f3b	-0.5436894
122	0x3b43bf13	0.0029868528
123	0xbf8647da	-1.0490677
124	0x3d9443b2	0.07239474
125	0xbe8c9829	-0.2745984
126	0xbd8a6851	-0.06758178
127	0x3e4dbf37	0.20092474
128	0xbdc47ece	-0.095944986
129	0x3e12f1f4	0.1435011
130	0x3da0ca9b	0.07851144
131	0x3f6aedf6	0.9176935
132	0xbdfd7069	-0.12374956
133	0x3f128791	0.5723811
134	0x3d2d29e2	0.04227627
135	0xbe78deda	-0.24303761
136	0x3da37738	0.079817235
137	0xbf0b3781	-0.5438157
138	0x3dd47ad1	0.10374988
139	0x3e982362	0.29714495
140	0xbef694c5	-0.48160377
141	0x3f6e7fe5	0.931639
142	0xbe8523eb	-0.26003966
143	0xbf2000d4	-0.62501264
144	0x3efa7d6d	0.48923817
145	0xbf0e0566	-0.5547699
146	0x3e6ccd77	0.23125254
147	0x3f8ba486	1.0909584
148	0xbdeb3b1b	-0.11485883
149	0x3f9cf633	1.2262634
150	0x3ecd7ecd	0.40135804
151	0xbee5baef	-0.44869182
152	0x3f2f3fbd	0.6845663
153	0xbe6d3570	-0.23164916
154	0x3fa19836	1.2624576
155	0x3b3b6dca	0.0028599375
156	0xbf827731	-1.0192624
157	0x4004a589	2.0726035
158	0x3f5c8fd3	0.8615696
159	0x3f8abf74	1.0839677
160	0xbdebd656	-0.11515491
161	0x3f3b2458	0.7310233
162	0x3e45db2b	0.19321887
163	0x3f958004	1.1679692
164	0xbd46fc4a	-0.048580445
165	0xbec33604	-0.38127148
166	0x3e8d3ec3	0.27586946
167	0x3e51ca1b	0.20487253
168	0xbeadc607	-0.33940145
169	0xbe4e2850	-0.20132565
170	0xbde19dfc	-0.11016461
171	0x3eb5f58e	0.35538906
172	0xbe43b8e9	-0.19113506
173	0xbed9a763	-0.42510518
174	0xbed8443c	-0.4223956
175	0xbece9f7b	-0.4035605
176	0xbdaf399f	-0.08555912
177	0xbddea182	-0.10870649
178	0x3e884430	0.26614523
179	0x3dedb6e0	0.11607146
180	0xbe585ed2	-0.21129921
181	0x3f3d370e	0.7391213
182	0xbe348e8a	-0.176325
183	0xbea13cf3	-0.31491813
184	0xbeb8fd0a	-0.36130553
185	0xbf17fa53	-0.5936634
186	0xbdc82e1f	-0.09774422
187	0xbee942b0	-0.4555869
188	0x3e1fa53b	0.15590374
189	0x3ee7881b	0.45221028
190	0x3e233f29	0.15942062
191	0x3e39f336	0.18159184
192	0x3e8cff73	0.27538642
193	0xbf347ed4	-0.70506024
194	0xbe4b28c9	-0.19839777
195	0x3e503c6f	0.20335554
196	0xbb50146b	-0.0031750451
197	0xbe7ed39c	-0.2488541
198	0x3cfd78f9	0.030941473
199	0x3e5de1a6	0.2166811
200	0xbee90048	-0.45508027
201	0xbf25481f	-0.64563173
202	0x3f7cc916	0.9874433
203	0xbd3fa5f5	-0.04678913
204	0xbfa58b12	-1.2933066
205	0xbe80a796	-0.25127858
206	0x3ed4c368	0.41555333
207	0x3e48e511	0.19618632
208	0xbe10e423	-0.14149527
209	0x3e194919	0.14969291
210	0x3e4a7b91	0.197737
211	0xbe99e61a	-0.30058366
212	0xbd95713a	-0.07296987
213	0x3e997682	0.29973227
214	0xbd6355c5	-0.055501718
215	0x3ca1e538	0.01976262
216	0xbe8c7989	-0.27436474
217	0xbdbe9308	-0.09305388
218	0xbdf87ff8	-0.12133783
219	0x3e1be6e2	0.15224794
220	0xbe5694bc	-0.20955175
221	0xbec2c19b	-0.38038334
222	0xbd92b593	-0.07163539
223	0xbd5398a0	-0.051659226
224	0x3aea9685	0.0017897642
225	0x3e095155	0.13409932
226	0xbd9a0006	-0.07519536
227	0x3e3b7887	0.18307696
228	0x3d8e42a8	0.069463074
229	0x3d32ca71	0.043650094
230	0xbe193a3c	-0.14963621
231	0x3e2b3a4f	0.16721462
232	0x3dda8da9	0.10671551
233	0xbed53ac4	-0.41646397
234	0x3e23fa4e	0.16013452
235	0x3e9814ad	0.29703274
236	0xbdd40a92	-0.103535786
237	0xbe518048	-0.20459092
238	0x3e9992d2	0.29994828
239	0xbe77243f	-0.2413492
240	0x3e20fbd4	0.15721065
241	0xbe9a3e0c	-0.30125463
242	0x3e1d1960	0.15341711
243	0x3d604362	0.05475176
244	0x3e244710	0.16042733
245	0xbd76dd95	-0.06026991
246	0xbdd46b4e	-0.10372029
247	0xbe3ccba8	-0.18437064
248	0x3df1f7f6	0.11814873
249	0x3d37f152	0.044907875
250	0x3e0633c0	0.13105679
251	0xbe907871	-0.2821689
252	0xbe8e19ee	-0.27754158
253	0x3e8ea616	0.2786109
254	0xbe55990f	-0.20859168
255	0x3daf4850	0.085587144

encoder.rnn.weight_hh_l0 f4 [30, 10]
0	0xbdc509ae	-0.09620987
1	0x3e0c5f43	0.13708214
2	0xbeef2c0b	-0.4671329
3	0xbf2b4227	-0.66897815
4	0xc01ddf43	-2.4667518
5	0x3fa2bb37	1.2713383
6	0xbebddc3b	-0.37082085
7	0xbf33ed8b	-0.70284337
8	0xbf8d6b2d	-1.1048332
9	0xbeb461f7	-0.3523099
10	0x3e61e181	0.22058679
11	0x3eeba504	0.46024334
12	0x3f1b883d	0.6075476
13	0xbfd1b557	-1.6383466
14	0x400129d0	2.018177
15	0xbebbbf21	-0.36669257
16	0xbf0b8608	-0.5450139
17	0xbf73ff12	-0.9531108
18	0xbf47135e	-0.77763927
19	0x3f2d3684	0.6766131
20	0xbf091fe7	-0.53564304
21	0x3e69e696	0.22841868
22	0x407c2d2c	3.940257
23	0x3fd2467e	1.6427763
24	0x3d22a489	0.039707694
25	0xbf3438f8	-0.7039943
26	0xbf0dde45	-0.5541728
27	0x3d07f9dc	0.03319727
28	0xbf2bbe8e	-0.6708764
29	0xbf609b27	-0.87736744
30	0xbfca4bdb	-1.5804399
31	0x3d994db6	0.07485525
32	0xbefdeb3d	-0.49593535
33	0x3f51d1cf	0.8196077
34	0x40b674bc	5.70175
35	0x3d9aace3	0.07552507
36	0x3f3f8852	0.74817383
37	0x3fc7b2f3	1.5601486
38	0x4025ed37	2.5926034
39	0xbf3e0cf7	-0.7423853
40	0xbec16a34	-0.3777634
41	0x3edbeadc	0.4295262
42	0xbf98c1ff	-1.1934203
43	0x3f28a4ea	0.6587664
44	0xbdf7e27e	-0.12103747
45	0xbfe2f0a5	-1.7729689
46	0x3fca8ed0	1.5824833
47	0xbf23d479	-0.6399608
48	0x40036ba9	2.053446
49	0x3fd96f64	1.6987119
50	0xbfe9fc7d	-1.8280178
51	0xbf690de9	-0.9103685
52	0x40015d17	2.0213068
53	0x3eaf8042	0.3427754
54	0xc055a136	-3.3379645
55	0x3f71610d	0.9428871
56	0xbf7d7600	-0.9900818
57	0xbedabe8d	-0.42723504
58	0xc03713ef	-2.8605917
59	0xbfd24604	-1.6427617
60	0x3e584487	0.21119891
61	0x3f14a75b	0.58067864
62	0xbee153ea	-0.44009334
63	0x4035de6b	2.8417003
64	0xbe818813	-0.2529913
65	0x3ff2b1d2	1.8960516
66	0xbf82d934	-1.0222535
67	0x3f1925d0	0.5982332
68	0xbe594afa	-0.21220008
69	0xbf71f664	-0.9451659
70	0x3d0d449e	0.034489267
71	0x3fe2b274	1.771071
72	0x3e4e9f7e	0.20178029
73	0xbf67d9e0	-0.90566826
74	0x402fd9b5	2.7476628
75	0x3fc3a51a	1.528476
76	0x3edf8c53	0.43661746
77	0xc002a4f8	-2.041319
78	0x3f2825e9	0.65682846
79	0xbfa53309	-1.29062
80	0x3e848bfc	0.2588805
81	0x3f4160fe	0.75538623
82	0xbfbfa22d	-1.4971367
83	0x3f10091b	0.56263894
84	0xbfba123d	-1.4536816
85	0x408309af	4.094932
86	0x3f8c8d86	1.098069
87	0x3d7bcbc8	0.061473638
88	0x3f82bd3d	1.0214001
89	0xc02f874d	-2.742633
90	0xbe1ceeb2	-0.1532543
91	0xbf747401	-0.9548951
92	0x3e0207be	0.12698266
93	0x3dc9a8fe	0.09846686
94	0xbeae6a5b	-0.34065518
95	0xbf24c1f7	-0.64358467
96	0xbf04d69c	-0.5188997
97	0x3fab0ddf	1.3363608
98	0x3f2ae2d1	0.66752344
99	0x3f565e5a	0.8373772
100	0xbf910426	-1.1329391
101	0xbfb1a829	-1.3879443
102	0x3fa75978	1.3074179
103	0x3f85a8af	1.0442103
104	0x3f73a2bc	0.9517019
105	0xc0684094	-3.6289415
106	0xbfb1911f	-1.3872412
107	0x403ded57	2.967611
108	0xbfb7fd74	-1.4374223
109	0xbba8a082	-0.005146087
110	0xbebcb107	-0.3685381
111	0xbf3672e1	-0.7126904
112	0xc0079576	-2.1184974
113	0xc01812f5	-2.376157
114	0xc00f7eae	-2.242107
115	0xbe81bc8f	-0.2533917
116	0x40848319	4.141003
117	0xbf9f6802	-1.2453616
118	0xbdaa1cb9	-0.0830626
119	0x40187e7e	2.3827205
120	0xbeba3dea	-0.36375362
121	0xbdff4d74	-0.12465945
122	0xc0b26797	-5.5751452
123	0x3f6d7efc	0.9277189
124	0x3e8ddb42	0.27706343
125	0xbedf66cb	-0.43633112
126	0x3dabf795	0.08396832
127	0xbefbf8a6	-0.4921314
128	0xbe41dc50	-0.18931699
129	0xbefec07e	-0.49756235
130	0xbec7a889	-0.3899577
131	0x3e9a4a49	0.301348
132	0x3fa76f84	1.3080907
133	0xc004628f	-2.0685155
134	0xbf6e8317	-0.9316878
135	0x3f8a8346	1.0821311
136	0x3fec83d0	1.8477726
137	0x3f736986	0.9508289
138	0x400c3682	2.190827
139	0xbf5e0528	-0.8672662
140	0xbd16f4e2	-0.036854632
141	0x3f84a7bb	1.0363687
142	0x3ea1f5a4	0.3163272
143	0x4019399b	2.394141
144	0x4000d0f0	2.0127525
145	0xbfe4863a	-1.7853463
146	0xbf9eada5	-1.2396742
147	0xc01f73b4	-2.491437
148	0xbfb38df6	-1.4027698
149	0xc0017ae2	-2.0231252
150	0x3fc65dbd	1.5497357
151	0x3f0ed71e	0.5579699
152	0x3f4aa354	0.7915547
153	0x3fa83f44	1.3144307
154	0x40f96f5f	7.794845
155	0xbe11851c	-0.14210933
156	0x4021fb01	2.530945
157	0x400f87a6	2.2426543
158	0x3f836cad	1.026754
159	0xc03abc8a	-2.9177575
160	0x3f313c05	0.6923221
161	0x3ec50109	0.38477352
162	0x40500437	3.2502573
163	0xbf87d5ba	-1.0612099
164	0x3fee5263	1.8618892
165	0xbf5d4f3f	-0.86449045
166	0xbfddeb66	-1.7337463
167	0xbfb663c5	-1.4249197
168	0xbf888d36	-1.0668094
169	0xbf7262ef	-0.9468221
170	0x3dd42790	0.103591084
171	0xbf3e29d6	-0.74282587
172	0xc0063c18	-2.0974178
173	0x3f67c01d	0.90527517
174	0xbfb49400	-1.4107666
175	0x3e434d1c	0.19072384
176	0xbe0efd91	-0.13963915
177	0x3ecca0f2	0.39966542
178	0xbfc24661	-1.5177728
179	0xbf686ad4	-0.90788007
180	0xbe19eef2	-0.15032557
181	0x3f23a724	0.6392691
182	0xbf0fc384	-0.5615771
183	0x3f35f9b5	0.7108415
184	0xbf433135	-0.7624696
185	0xbfa87c82	-1.3162997
186	0xbff084dc	-1.8790545
187	0xbf8027bb	-1.0012125
188	0xbfc338df	-1.5251731
189	0xbeb18eba	-0.34679204
190	0xbed9bc78	-0.42526603
191	0xbfad1b8f	-1.3524035
192	0x3ec8c1db	0.392104
193	0x3f1c2003	0.60986346
194	0x3f5b62fd	0.8569792
195	0x4002079e	2.031715
196	0xc0524ff4	-3.28613
197	0x4065edc5	3.5926373
198	0x3ec8b44c	0.39200056
199	0xbf82ad73	-1.0209183
200	0x3f00f069	0.50366837
201	0xbfb328b1	-1.3996793
202	0x400b3e57	2.17568
203	0xbf07ebec	-0.53094363
204	0x400f8758	2.2426357
205	0xc099cf8f	-4.8065867
206	0xc0592c51	-3.3933299
207	0xbc5fb00a	-0.013652811
208	0xc081b880	-4.053772
209	0xc00642bc	-2.0978231
210	0xbed53cbb	-0.41647896
211	0x3ef20365	0.47268215
212	0x3edc3ece	0.43016666
213	0xbf972e4b	-1.1811002
214	0xbf8e7499	-1.1129333
215	0x3e4fe9a6	0.20303974
216	0x3f9dff92	1.2343619
217	0x3f1d8335	0.6152833
218	0x3f5f71bd	0.87282926
219	0x3fcf23ca	1.6182797
220	0xbdccc7a3	-0.09999015
221	0xbeb1ef63	-0.3475295
222	0x404ef12f	3.2334707
223	0x3d1042ac	0.035219833
224	0x3d6afee0	0.057371974
225	0x3df01f50	0.117247224
226	0x3f0dd0c9	0.55396706
227	0xbda5a11a	-0.08087368
228	0xbe39398b	-0.18088357
229	0xbdc574d8	-0.09641427
230	0xbf7233db	-0.94610375
231	0xbde77ff6	-0.113037035
232	0xbe5086c4	-0.20363909
233	0x3f284975	0.65737087
234	0x3f76a162	0.9634
235	0xbe290b76	-0.16508278
236	0xbf87f4ec	-1.0621619
237	0x3e91f45e	0.2850675
238	0x3f23fccd	0.6405762
239	0x3fa556e0	1.2917137
240	0x3d3ab3e9	0.045581732
241	0xbc8d2981	-0.017231705
242	0xbe3483ce	-0.17628404
243	0x3d9f2c9b	0.0777218
244	0x3dd1b790	0.1024009
245	0x3e6a49e1	0.22879745
246	0x3eacf3b7	0.3377969
247	0xbda53f34	-0.08068696
248	0xbebccff3	-0.36877403
249	0xbeebf901	-0.46088412
250	0x3e91aae1	0.28450683
251	0x3e7b7481	0.24556161
252	0xbfbd31d1	-1.4780828
253	0x3f4a00aa	0.78907263
254	0xbeda2f2a	-0.42614108
255	0x3fbc8d25	1.4730574

encoder.rnn.bias_ih_l0 f4 [30]
0	0xbe765459	-0.24055614
1	0x3eac548f	0.33658263
2	0xbeceb1dd	-0.40370074
3	0x3f5b7afe	0.85734546
4	0x3db6f2d6	0.08933036
5	0x3ccf4ca5	0.025305102
6	0x3ec1f38f	0.37881133
7	0x3eae01c5	0.33985725
8	0x3ffcb863	1.974377
9	0xbf0fd79b	-0.5618836
10	0x3f19c8bd	0.6007193
11	0xbf9c7a7d	-1.222488
12	0x3f88e803	1.0695804
13	0xbf989bcf	-1.1922549
14	0xbf6060ae	-0.8764752
15	0xbf645278	-0.8918834
16	0xbfb4e376	-1.4131916
17	0x3f210af7	0.62907356
18	0x3fce01f2	1.6094344
19	0xbe608de1	-0.21929123
20	0xbdacb9c1	-0.08433867
21	0x3e368533	0.17824249
22	0x3e801db9	0.25022677
23	0x3d941d5b	0.072321616
24	0xbb8b265d	-0.0042465166
25	0xbe328097	-0.17431866
26	0x3f25355e	0.64534557
27	0xbefae0a3	-0.4899951
28	0xbe4365be	-0.1908178
29	0x3d12b4c7	0.035816934

encoder.rnn.bias_hh_l0 f4 [30]
0	0x3d27506f	0.04084819
1	0x3ea42c23	0.32064924
2	0xbf360ea8	-0.71116114
3	0x3e8900f4	0.2675854
4	0x3e889ebd	0.26683608
5	0xbe99255a	-0.2991131
6	0x3e2e8e2c	0.17046422
7	0x3e98e070	0.29858732
8	0x3fae848c	1.36342
9	0xbf0e567f	-0.5560073
10	0x3e68123d	0.22663207
11	0xbf90494d	-1.127237
12	0x3f8e4169	1.1113712
13	0xbfbf1e10	-1.4931049
14	0xbf886c5a	-1.0658066
15	0xbeecd5fb	-0.46257004
16	0xbfbaa468	-1.4581423
17	0x3f3f02a0	0.7461338
18	0x3fb50378	1.4141684
19	0x3e7d2d49	0.24724306
20	0xc07b20d8	-3.9238796
21	0xbf45684f	-0.7711229
22	0x3f0833a7	0.53203815
23	0xbf852e59	-1.0404769
24	0x3f7390cd	0.95142823
25	0x3fc28291	1.5196096
26	0x4082da93	4.0891814
27	0x3f2750dd	0.6535776
28	0x3eaa9a7e	0.33320993
29	0xbf5d7091	-0.8649989

decoder.rnn.weight_ih_l0 f4 [30, 10]
0	0xc0006d14	-2.0066576
1	0xbf04066e	-0.5157231
2	0x3fe58769	1.7931949
3	0xc0739ac9	-3.8063223
4	0xc0756a53	-3.8346145
5	0xbf58242a	-0.8443018
6	0x3cfa0277	0.030518753
7	0x3fc485d2	1.5353339
8	0x400ad880	2.169464
9	0x3e07124d	0.13190575
10	0xbabb9ce0	-0.001431372
11	0x3f55d988	0.8353505
12	0x3edeb73e	0.43499178
13	0xbe9d1eaa	-0.30687457
14	0x3f1a0bb9	0.6017414
15	0x3c98ed36	0.018667798
16	0xbeeee847	-0.4666159
17	0x3dc16222	0.094425455
18	0x3db4a283	0.08820059
19	0x3ec9225c	0.39284027
20	0x3fb6896b	1.4260687
21	0xbf902f32	-1.1264403
22	0x3f1bc35c	0.6084497
23	0xbfe9bc3d	-1.8260571
24	0x3f4e2465	0.80524284
25	0x3fb3edf0	1.4056988
26	0xc00df9a5	-2.218362
27	0xbf9047bc	-1.1271892
28	0xbf8d48e7	-1.1037873
29	0xbe84a2ac	-0.2590536
30	0xbda1748e	-0.07883559
31	0xbfe80903	-1.812775
32	0xbf5e9ef1	-0.86961275
33	0xbdfd04f2	-0.12354459
34	0x3fdee08b	1.7412275
35	0xbe4ad71c	-0.1980862
36	0x3ff7450a	1.9317944
37	0x4050b805	3.2612317
38	0xbe20c5a9	-0.15700401
39	0xbf96c53c	-1.1778941
40	0xc0050cc5	-2.0789044
41	0x3f9dde96	1.2333553
42	0x3fbeafbc	1.489738
43	0xbee7627a	-0.4519232
44	0x400e5c92	2.2244
45	0xbf2ad2af	-0.6672773
46	0x3f5c7a1d	0.8612383
47	0xbef99f94	-0.4875456
48	0xc04ddf66	-3.2167602
49	0x3f15d3ec	0.5852649
50	0x3f82ad31	1.0209104
51	0x403948c7	2.895067
52	0x3f7418d4	0.95350385
53	0xbe1f8108	-0.15576565
54	0x3ffee1b6	1.9912632
55	0x3f5c48ec	0.8604877
56	0xbd147523	-0.036244523
57	0x3f2d85fd	0.67782575
58	0x3ed68808	0.4190066
59	0xbe4d6462	-0.20057824
60	0x3e9f6137	0.31128857
61	0xbf82e304	-1.022553
62	0x400dd46d	2.2160904
63	0x3e36cb36	0.17850956
64	0x3bd42302	0.0064739
65	0xbe9c768c	-0.30559194
66	0x3fa06eaf	1.2533778
67	0xbf8d2d04	-1.1029363
68	0x3ecee230	0.40406942
69	0x3d9b18d4	0.07573095
70	0x3fe583cf	1.793085
71	0xc01dae6c	-2.4637709
72	0x3fde8153	1.7383217
73	0xbf829ed7	-1.0204724
74	0xbfcb791f	-1.5896338
75	0xbfdef766	-1.741925
76	0x3fed709f	1.8549994
77	0xbf1a4fbb	-0.6027791
78	0xbf8a2322	-1.0791972
79	0x3e8eff4c	0.2792915
80	0xbf01075e	-0.50401866
81	0xbf1dea3d	-0.61685544
82	0x3f3895eb	0.72103757
83	0x4040e9c8	3.0142689
84	0x3f63561c	0.8880327
85	0xbf83524c	-1.025949
86	0xbfddec82	-1.7337801
87	0xbffbf1d9	-1.9683181
88	0x3f0783c0	0.5293541
89	0xbf749334	-0.95537114
90	0xbd2565c8	-0.04038027
91	0xbe927cc9	-0.2861083
92	0xbeb4d807	-0.35321066
93	0x3fc66846	1.5500572
94	0x3f889a58	1.0672102
95	0x3e0726c0	0.13198376
96	0x3f766aad	0.96256524
97	0x405c42f8	3.4415874
98	0xbe6fe8f9	-0.23428716
99	0xbed7d6f4	-0.42156184
100	0xbf3a6f16	-0.72825754
101	0xbdb4afb1	-0.08822573
102	0x3f78850c	0.97078013
103	0xbe21b0ae	-0.15790054
104	0x3efd6ee5	0.49498668
105	0x3f716711	0.9429789
106	0x3ec34fbc	0.3814677
107	0xbf555211	-0.8332835
108	0xbec0cb84	-0.3765527
109	0xbf3540a5	-0.70801765
110	0x3e89ec9b	0.26938328
111	0xbe019a2a	-0.12656465
112	0xbedd6011	-0.43237355
113	0xbc0283fb	-0.007966037
114	0xbe7d72c5	-0.24750812
115	0xbe2e6790	-0.17031693
116	0xbe0bf413	-0.13667326
117	0x3dfd5da8	0.12371379
118	0x3e435876	0.19076714
119	0x3d6e00c1	0.058106188
120	0xbce55daa	-0.027998764
121	0x3bf37dd7	0.0074307728
122	0x3d74dbcd	0.05977993
123	0xbd7329e7	-0.059366133
124	0x3c68522d	0.0141797485
125	0x3d058396	0.032596193
126	0xbcec783c	-0.028865926
127	0xbcd9b5f7	-0.026576025
128	0x3a8da750	0.0010807309
129	0xbc5305cc	-0.0128798
130	0x3f8c60ce	1.0967042
131	0x3f996911	1.1985189
132	0x3f52f803	0.82409686
133	0x3ed860bc	0.42261302
134	0x3f9a2c89	1.2044841
135	0xbf619537	-0.8811831
136	0xbf1d7dfe	-0.61520374
137	0x3fd16611	1.6359273
138	0xbea82676	-0.32841843
139	0xbfa941bf	-1.3223189
140	0xbdf23bae	-0.11827789
141	0x3b6cd8ef	0.0036140045
142	0xbf0f97f1	-0.5609122
143	0x3d958f43	0.07302716
144	0xbdaeee02	-0.0854149
145	0x3e039fbf	0.12853907
146	0xbeeeae82	-0.46617514
147	0x3e96ae7e	0.29430002
148	0xbe3b80e7	-0.18310891
149	0x3ec601a1	0.38673118
150	0xbdd8c134	-0.105837256
151	0xbdc00e58	-0.09377736
152	0xbbb3dba4	-0.0054888297
153	0xbf10ab7e	-0.56511676
154	0x3d83c7aa	0.06434567
155	0x3efb22fa	0.49050122
156	0xb9a7d216	-0.00032009248
157	0xbe80bd43	-0.25144395
158	0x3ddfc5a0	0.10926366
159	0xbf911e67	-1.1337403
160	0xbfacf46b	-1.351209
161	0xbfb0c8e3	-1.3811306
162	0x3f13b8b1	0.5770369
163	0x3e1cf716	0.15328631
164	0x3edb5995	0.42841783
165	0x3f2b94b5	0.67023784
166	0x3efed230	0.49769735
167	0x3f1e169c	0.6175325
168	0x3e0767e1	0.1322322
169	0xbe286472	-0.16444567
170	0xbec4de8f	-0.3845105
171	0xbd9f5812	-0.0778047
172	0x3d184a32	0.037180133
173	0x3e012479	0.1261157
174	0xbd83657f	-0.06415843
175	0x3eb3b56b	0.35099348
176	0xbeaa4643	-0.3325673
177	0x3f223800	0.633667
178	0x3e798fc7	0.24371253
179	0x3eed9edf	0.46410272
180	0x3dbd0dbe	0.09231137
181	0xbe65e795	-0.22451623
182	0x3e70ce52	0.23516205
183	0x3e65d713	0.22445326
184	0xbcf3dac4	-0.029767402
185	0xbdeebce2	-0.1165712
186	0xbeacdee1	-0.33763793
187	0xbe3fa4d3	-0.18715219
188	0xbe0f5a04	-0.13999182
189	0xbe96ce59	-0.29454306
190	0xbe85ba28	-0.26118588
191	0x3f8ee7f3	1.1164535
192	0xbf04f93d	-0.5194281
193	0xbd74d6fe	-0.059775345
194	0xbe936158	-0.28785205
195	0x4013d952	2.3101392
196	0x3fbe73a8	1.4879045
197	0x3f30c26e	0.69046676
198	0x3ebb73e6	0.3661186
199	0xbfa9e985	-1.327439
200	0xbe9f2f03	-0.31090555
201	0xbdca13ea	-0.098670796
202	0x3e901a1a	0.28144914
203	0xbefaa179	-0.4895132
204	0xbf057863	-0.5213682
205	0xbddaa62c	-0.10676226
206	0x3d15f619	0.03661165
207	0x3e14cb2b	0.14530627
208	0x3e84d2d6	0.25942105
209	0xbd180f47	-0.037123945
210	0x3dc8399e	0.097766146
211	0xbf07bca1	-0.530222
212	0xbf31b5a1	-0.6941777
213	0xbd86bff7	-0.06579583
214	0xbf0e065d	-0.5547846
215	0x3ce33991	0.02773741
216	0xbc56b5b9	-0.0131048495
217	0x3d12d8a0	0.03585112
218	0x3e8557c5	0.26043525
219	0xbec31376	-0.38100785
220	0xbd434575	-0.04767366
221	0x3e8898ab	0.26678976
222	0x3de64321	0.112432726
223	0xbe6e9984	-0.23300749
224	0x3e119cef	0.14220022
225	0x3dc4ce83	0.096097015
226	0xbe3d3d36	-0.18480381
227	0xbe626a33	-0.22110824
228	0x3e68f9cf	0.22751544
229	0x39f53afb	0.00046773985
230	0xbf0b1014	-0.5432141
231	0xbfbb30d1	-1.4624273
232	0xbf0c2908	-0.5475011
233	0xbee603e5	-0.44924846
234	0x3e8d0e00	0.27549744
235	0x3f3ca306	0.73686254
236	0x3f1a1519	0.6018844
237	0x3f03d1ae	0.5149182
238	0x3f0851d5	0.53249866
239	0x3e08aab9	0.13346376
240	0xbde175af	-0.110087745
241	0x3f08ab6e	0.5338658
242	0xbf866ed2	-1.050257
243	0xbe7eb4aa	-0.24873605
244	0x3f121af7	0.57072395
245	0xbf34f7b8	-0.7069049
246	0xbf286b53	-0.65788764
247	0xbec8e313	-0.39235744
248	0xbe0d2367	-0.13783036
249	0xbe120808	-0.14260876
250	0xbf1a10e0	-0.60182
251	0x3e363ee5	0.1779743
252	0xbccaef8e	-0.024772432
253	0xbea6f177	-0.32606098
254	0xbdd4db67	-0.1039341
255	0xbc0e9ed2	-0.008704858

decoder.rnn.weight_hh_l0 f4 [30, 10]
0	0x3c8d5b65	0.017255494
1	0x3e0b683f	0.13613985
2	0xbdeab158	-0.11459607
3	0xbf149585	-0.5804065
4	0x3e0eeea8	0.13958228
5	0x3e019449	0.12654223
6	0x3d11cdbc	0.035596594
7	0x3dcb5f95	0.0993034
8	0x3e11fbad	0.14256163
9	0xbc22aade	-0.009928433
10	0x3ea65d03	0.32492837
11	0x3fcda030	1.606451
12	0xbea0a440	-0.31375313
13	0xbeeee465	-0.46658626
14	0x3fc2e60e	1.5226457
15	0xbfd68823	-1.6760296
16	0x3f818b60	1.0120659
17	0xbedfaea2	-0.43687922
18	0x3ef137b0	0.471128
19	0xbdcec647	-0.10096412
20	0x3e6e7f51	0.23290755
21	0x3dbe42de	0.09290098
22	0x3facc72d	1.3498284
23	0xc0241196	-2.5635734
24	0xbff3244e	-1.8995454
25	0x40276211	2.6153605
26	0xbfd2dba2	-1.6473277
27	0xbf0904ce	-0.53522956
28	0xb78e62f7	-1.6973803e-05
29	0x3e3703ae	0.17872497
30	0x3fa2bdfc	1.2714229
31	0xc007e3d5	-2.1232808
32	0x3ec6feae	0.3886618
33	0xbf8619c3	-1.0476612
34	0x3e0fb6f6	0.14034638
35	0xbfd8aebb	-1.6928324
36	0x3f58f2c3	0.84745425
37	0x4033d5d2	2.8099256
38	0xbeacb3bc	-0.33730876
39	0xc08edda2	-4.464555
40	0xbdd0d785	-0.10197357
41	0x3d329f15	0.043608744
42	0x3eeaaa1e	0.45832914
43	0x3e0a951a	0.1353344
44	0xbf54e459	-0.8316093
45	0xbfa08f1d	-1.2543675
46	0xc0403501	-3.003235
47	0xbe91c9ba	-0.28474218
48	0xbfa34ad5	-1.2757212
49	0x3f41e168	0.7573457
50	0x3f5501a5	0.83205634
51	0x3f337403	0.70098895
52	0xbea40041	-0.32031444
53	0x3eec5aff	0.46163175
54	0xbf3a2ec1	-0.7272759
55	0xbf1e1277	-0.61746925
56	0xc0109cc1	-2.2595675
57	0xbe34f8e7	-0.17673074
58	0xbe1a9150	-0.15094495
59	0xbe540b92	-0.20707539
60	0x3ddb344d	0.10703335
61	0x3f7c6474	0.9859078
62	0x3f44c383	0.7686083
63	0x4040f325	3.0148404
64	0x3f326e05	0.69699126
65	0xbea4acfb	-0.32163224
66	0xc01f7e21	-2.4920733
67	0xbd2c1d50	-0.042020142
68	0xbe84cc45	-0.25937095
69	0xbe6cfe7e	-0.23143956
70	0x3fb65d3b	1.4247202
71	0xbe4ab4dd	-0.19795556
72	0x401a34f3	2.4094818
73	0x3ffd0d4d	1.9769684
74	0x3fa32305	1.2745062
75	0xbf7eceeb	-0.9953448
76	0xc09e1528	-4.9400826
77	0xbe3b5186	-0.18292817
78	0x3fb05b83	1.3777927
79	0x3d301f35	0.04299851
80	0xbe728aa9	-0.23685707
81	0x3e0741e0	0.13208723
82	0x3f502e59	0.8132072
83	0x3ef72d5a	0.48276788
84	0x3f25c0f1	0.6474753
85	0xbeef1945	-0.46698967
86	0xc006f0b8	-2.1084423
87	0xbbbabb73	-0.005698615
88	0xbf37b1b6	-0.7175554
89	0x3df5b5e1	0.11997581
90	0x3ea211f1	0.31654313
91	0xc009253e	-2.142898
92	0x3fa7e54c	1.3116851
93	0x3e3d826e	0.18506786
94	0xc00cab5e	-2.1979594
95	0xbfa3fd45	-1.2811667
96	0xc02897c8	-2.634264
97	0x40571f8a	3.3613
98	0x3dfc9547	0.1233316
99	0xbf2b841a	-0.66998446
100	0x3f3f4649	0.7471662
101	0xbecccbd6	-0.39999264
102	0x3f356c82	0.70868695
103	0x401571f5	2.3350804
104	0x3f664ff1	0.8996573
105	0xbe977cc1	-0.29587367
106	0xc092e5f6	-4.5905714
107	0x3ed350c4	0.41272557
108	0xbf73ab01	-0.95182806
109	0x3e326429	0.1742102
110	0xbda3235b	-0.07965728
111	0xbf3d5186	-0.7395252
112	0xc043c308	-3.0587788
113	0x3d3c12fa	0.045916535
114	0x3e145234	0.14484483
115	0xbea1fe32	-0.31639248
116	0xbf4ca667	-0.7994141
117	0x3e542b56	0.20719656
118	0x3e9b406b	0.30322585
119	0xbe07b2ca	-0.13251796
120	0xbbe1a4bb	-0.0068860925
121	0xbeba9f7b	-0.364498
122	0xc073b054	-3.8076372
123	0x3df18cb4	0.11794415
124	0xbdcd0158	-0.10010022
125	0xbe18501c	-0.1487431
126	0xbfd40e83	-1.6566929
127	0xbdd5eabc	-0.10445163
128	0xbdb98054	-0.0905768
129	0xbd57e024	-0.05270399
130	0x3d8e0ce9	0.06936056
131	0xbed2e2d3	-0.41188678
132	0x3e438da6	0.19097003
133	0x3fba9d2f	1.4579219
134	0xbf1aea20	-0.60513496
135	0x3b0d6d52	0.0021580053
136	0xbfae7940	-1.3630753
137	0x3f8622dc	1.0479388
138	0xbe53029a	-0.20606461
139	0xbf1d83cb	-0.61529225
140	0xbe330183	-0.17481045
141	0xbe563191	-0.20917346
142	0xbdb212db	-0.08695003
143	0xbee7b108	-0.45252252
144	0x3f50a1fb	0.8149716
145	0xbf68bcce	-0.90913093
146	0xc028dda0	-2.638527
147	0xbdc2f34a	-0.0951906
148	0x3df9e2b8	0.12201446
149	0xbf196c85	-0.5993121
150	0xbcbf5db9	-0.02336012
151	0xbefdc318	-0.49562907
152	0x3e855a52	0.2604547
153	0x3fc48a91	1.5354787
154	0x3e930cf8	0.28720832
155	0xbfb1150b	-1.3834547
156	0xbf81d44f	-1.0142916
157	0x3ea31a93	0.31856212
158	0xbf60b7eb	-0.87780637
159	0xbe1e9091	-0.15484835
160	0xbcfbc0ba	-0.030731548
161	0xbe55e4e5	-0.20888098
162	0xbfa86a19	-1.3157378
163	0x400ba716	2.182073
164	0xbf2a8514	-0.6660931
165	0xbe2e2761	-0.1700721
166	0xc09f8c4e	-4.985877
167	0xc011ab59	-2.2760832
168	0xbd748804	-0.059700027
169	0xbeeed4ce	-0.46646732
170	0xbf08eb08	-0.5348363
171	0xbd887733	-0.066633604
172	0xbdd9fae9	-0.106435604
173	0x3ed7d4bc	0.4215449
174	0x3ed65285	0.41859832
175	0xbf1179b1	-0.5682631
176	0xc021003e	-2.5156398
177	0xbf4faf23	-0.8112661
178	0xbf89ad49	-1.0756007
179	0xbe80a79f	-0.25127885
180	0xbce3a37d	-0.027787918
181	0xbf493f3c	-0.78612113
182	0xbf0c928a	-0.549111
183	0x3fbb893f	1.4651259
184	0xbf6152cd	-0.8801697
185	0x3ebe82a1	0.37209037
186	0xbe91feb0	-0.28514624
187	0xbd4f3a30	-0.0505926
188	0xbff33799	-1.9001342
189	0x3dcebd4b	0.100946985
190	0xbdae5dea	-0.085140064
191	0xbf80cb23	-1.0061992
192	0xbe8bba4f	-0.2729058
193	0x3fbfc56b	1.4982122
194	0xbf9db09f	-1.2319525
195	0x3f1460ff	0.57960504
196	0x3ea25014	0.3170172
197	0x3ecaba21	0.3959513
198	0xbf95812d	-1.1680046
199	0xbf967cb1	-1.1756803
200	0x3cae6223	0.02128703
201	0xbbb37553	-0.0054766326
202	0x3b0a9c43	0.0021150268
203	0x3a7e7df0	0.0009708097
204	0xbe032ad2	-0.12809303
205	0xbd0a19a4	-0.03371586
206	0x3d97437f	0.07385921
207	0xbbc85a86	-0.006114307
208	0xbe0d172f	-0.13778375
209	0xbd8461a5	-0.06463937
210	0x3d8c31d5	0.06845442
211	0x3f41968a	0.7562033
212	0x3f5888ff	0.8458404
213	0x3f608921	0.8770924
214	0x3d482fe0	0.048873782
215	0xbf0b8429	-0.54498535
216	0xc04dbc12	-3.214604
217	0xba391788	-0.00070606964
218	0x3d396479	0.045261834
219	0xbe04affa	-0.12957755
220	0x3e2a5c41	0.16636755
221	0xbf3e365e	-0.7430171
222	0x3fd1d6c4	1.6393666
223	0x3e855758	0.260432
224	0xbf98a4af	-1.1925257
225	0xbec07b67	-0.3759415
226	0xc0712fa6	-3.7685332
227	0xbe8fb187	-0.2806513
228	0x3ee45c1e	0.4460153
229	0x3e0f720b	0.14008348
230	0xbf6da4d1	-0.92829615
231	0x3f0cde3d	0.5502661
232	0xbf95a075	-1.1689593
233	0xbf48866e	-0.78330123
234	0x3f2729c3	0.652981
235	0x3f9d164a	1.2272427
236	0x4045c677	3.0902383
237	0x3f4e84a6	0.80671155
238	0x3ebf46fd	0.37358847
239	0xc00ebf13	-2.2304122
240	0x3d47de52	0.048796006
241	0x3ef3d493	0.4762312
242	0xbfbdd40e	-1.4830339
243	0xbee0f928	-0.4394009
244	0xbfd8d2c1	-1.6939317
245	0xbe9c97be	-0.3058452
246	0x3fdbfcab	1.7186483
247	0xbfc8fd52	-1.5702307
248	0x3f031710	0.51207066
249	0xbcde855c	-0.0271632
250	0x400670c5	2.100633
251	0x3d48c674	0.049017385
252	0x3dd47702	0.103742614
253	0x3f429f93	0.7602474
254	0x3e317744	0.17330652
255	0xbf0895d4	-0.5335362

decoder.rnn.bias_ih_l0 f4 [30]
0	0xbf03f215	-0.5154126
1	0x4000cf8d	2.012668
2	0x402209cc	2.531848
3	0x3f5cb99e	0.8622073
4	0xbf213f21	-0.6298695
5	0x3ea9db41	0.3317509
6	0x3fff3f53	1.99412
7	0xbec04a60	-0.37556744
8	0x401eab1e	2.4791942
9	0x40203916	2.5034842
10	0xbf5bc765	-0.85851127
11	0xbf34128f	-0.7034082
12	0xbe1d0784	-0.15334898
13	0x3faf3505	1.3688055
14	0xbcf2163d	-0.02955162
15	0x3e99ec30	0.3006301
16	0x3cf9bd77	0.030485852
17	0xbee79026	-0.45227164
18	0x3ee408bc	0.44537914
19	0xbf9de119	-1.2334319
20	0x3f763f73	0.96190566
21	0x3e4985cb	0.19679944
22	0x3f7128e2	0.9420301
23	0x3e7bffa3	0.24609236
24	0x3f0cecfd	0.55049115
25	0xbe221c62	-0.1583114
26	0xbfd4b8c0	-1.6618881
27	0xbfb257db	-1.3933061
28	0x3e976c34	0.2957474
29	0xbf45e471	-0.773017

decoder.rnn.bias_hh_l0 f4 [30]
0	0xbf143c2b	-0.5790431
1	0x3fc9e1a1	1.5771981
2	0x40178ba6	2.3678985
3	0x3f3e0d36	0.7423891
4	0xbedf4583	-0.4360772
5	0xbe003e3d	-0.12523742
6	0x3fef7c8b	1.8709882
7	0xbd41f0eb	-0.047348898
8	0x401c13fc	2.4387197
9	0x4026b2ab	2.604655
10	0xbf581ef7	-0.8442225
11	0xbf4fe72b	-0.8121211
12	0xbf24f9d8	-0.6444373
13	0x3fcd2092	1.6025565
14	0x3d1c5744	0.03816916
15	0x3e9b6f25	0.30358234
16	0x3d1b65ad	0.037938762
17	0x3c0a9c25	0.008460079
18	0xbd83648c	-0.06415662
19	0xbfa8e8b4	-1.3196015
20	0xc013ba03	-2.3082283
21	0xbf5a1087	-0.8518147
22	0xbfcf45ad	-1.6193138
23	0xbe78404c	-0.24243277
24	0xbf982cb4	-1.1888642
25	0xc0003c85	-2.0036938
26	0xc0405e16	-3.0057425
27	0x408561c9	4.1681867
28	0xbfe94893	-1.8225273
29	0xbfbb7757	-1.4645795

decoder.embedding.weight f4 [355, 10]
0	0x3f9e4fa2	1.2368052
1	0xc01591e6	-2.33703
2	0xbfdb2b52	-1.7122595
3	0x409c3197	4.8810534
4	0xc02853e9	-2.6301215
5	0xbeb637ff	-0.35589597
6	0xbfd51675	-1.6647478
7	0xbfb439ca	-1.4080136
8	0x406ca4a7	3.6975496
9	0xbf63bfef	-0.8896474
10	0x3f23adf3	0.639373
11	0x3fbed8cf	1.4909915
12	0x3ef62ff9	0.48083475
13	0x3ff687a7	1.9260148
14	0x3ebc0ee3	0.36730108
15	0xbf99f002	-1.202637
16	0xbf00791b	-0.5018479
17	0x3f2d4e92	0.67698014
18	0xbe913e48	-0.2836783
19	0xc025fef6	-2.5936866
20	0xbfc6473d	-1.549049
21	0x3eebe292	0.46071297
22	0xbf129e8e	-0.57273185
23	0xbf00ae68	-0.5026612
24	0xbfdc78f5	-1.7224413
25	0xbf7a3235	-0.9773286
26	0x3f29351b	0.6609666
27	0x3e7bed97	0.24602352
28	0xbd6bbf11	-0.057555262
29	0xbd65c76a	-0.05609838
30	0x3e2146f1	0.15749718
31	0xbe14e60a	-0.14540878
32	0xc0067e4a	-2.101458
33	0x3e9c615f	0.30543038
34	0xbf41c4d5	-0.75690967
35	0x3f4cdfed	0.80029184
36	0x3ffd1030	1.9770565
37	0xbe2d6fd5	-0.16937192
38	0xbfbdb529	-1.4820911
39	0x3fd3b603	1.653992
40	0x3f9fc07c	1.2480617
41	0xbf578996	-0.84194314
42	0xbe953908	-0.29145074
43	0xbfcd056c	-1.601728
44	0xbee99709	-0.45623043
45	0x3f5d2b69	0.86394364
46	0x3ef95d53	0.48704013
47	0xc00e3a89	-2.2223227
48	0xbef74737	-0.4829652
49	0xbda557cc	-0.080733865
50	0xbf09c03d	-0.5380896
51	0xc001aecb	-2.0262935
52	0xc10901ed	-8.56297
53	0xbf90de0b	-1.1317762
54	0xbea1c1ae	-0.31593078
55	0xc095a14d	-4.67594
56	0xc0b8c79c	-5.7743664
57	0xbf475f76	-0.77880037
58	0x4008464a	2.12929
59	0xc02c2e46	-2.6903243
60	0x3fbd919f	1.4810065
61	0x3fe8d3a2	1.8189585
62	0x3f1dc55a	0.6162926
63	0x3f1c199a	0.60976565
64	0x3f88a197	1.0674313
65	0xbf41aef6	-0.75657594
66	0xbf12acfc	-0.57295203
67	0x3f3bda10	0.7337961
68	0x3d0d5b40	0.03451085
69	0xbfee2a93	-1.8606743
70	0xbe4360ae	-0.19079849
71	0x3f2fdcbb	0.6869618
72	0xbf52de12	-0.823701
73	0x3fa0333d	1.2515637
74	0x3f5abdd3	0.854459
75	0xbf623cbc	-0.88373923
76	0x3e570400	0.2099762
77	0xbe56f1e1	-0.20990707
78	0xbe824b0e	-0.25447887
79	0xbf347230	-0.70486736
80	0xbf0dbcec	-0.55366397
81	0x3d57bbfa	0.052669503
82	0x3fb22d6d	1.3920113
83	0xbf53f50e	-0.827958
84	0x3f2701dd	0.6523722
85	0xbf64981a	-0.8929459
86	0xbfba085f	-1.4533805
87	0xbfecc076	-1.8496234
88	0x3db8bb95	0.090201534
89	0xbe996489	-0.29959515
90	0x3f68e286	0.9097065
91	0xbdd0e973	-0.10200777
92	0x3f23b811	0.6395274
93	0x3d027e3d	0.03185867
94	0x402cb6bf	2.698654
95	0xc010488b	-2.2544277
96	0xbe987288	-0.2977488
97	0x3ff89a9d	1.9422184
98	0xbe8e8a9f	-0.27840135
99	0xbf2e33ce	-0.680478
100	0xbf43eb91	-0.7653132
101	0x3f8916e0	1.0710106
102	0x3f5cc894	0.8624356
103	0x3e0729a6	0.13199481
104	0x3f261470	0.64874935
105	0xbee701e3	-0.45118627
106	0x3df34b79	0.1187963
107	0xbf9e3890	-1.2361012
108	0x3fb7c831	1.4357969
109	0x3f789b91	0.97112375
110	0xbf8b2be7	-1.0872773
111	0xbf531faf	-0.8247022
112	0x4039cfaf	2.903301
113	0x3f9720d7	1.1806897
114	0xbf136d43	-0.57588595
115	0xbe46e188	-0.19421971
116	0x3ef90992	0.48640114
117	0xbcd46bef	-0.025930373
118	0x3fb6c050	1.4277439
119	0x3fa94af9	1.3226005
120	0xbfbf05e3	-1.4923671
121	0xbe5350d8	-0.20636308
122	0x402e6d52	2.7254224
123	0xbf21900e	-0.63110435
124	0x3e8e20c3	0.2775937
125	0x3d724e1b	0.05915652
126	0x3e9b8ac8	0.3037932
127	0xbf9e5b40	-1.2371597
128	0x3f1658e3	0.5872938
129	0x40838f55	4.1112466
130	0xbd2ee97f	-0.042703148
131	0x3febbe74	1.8417497
132	0x3f45861e	0.7715777
133	0x3f00ac37	0.5026278
134	0xc002db4c	-2.0446348
135	0x40143a79	2.316069
136	0x3fb572a8	1.4175615
137	0xc016ca1f	-2.3560865
138	0x4086e590	4.215523
139	0x4097b45f	4.740768
140	0xbfbdf8ff	-1.4841613
141	0x3fcf5c55	1.6200052
142	0x3fd775c5	1.6832815
143	0x404898b3	3.13432
144	0xbf91dd9c	-1.1395755
145	0x40b42634	5.6296635
146	0x3e9d00ee	0.30664772
147	0xbfebfeb5	-1.8437105
148	0x3fa77214	1.3081689
149	0x400042dd	2.004081
150	0xbdc91099	-0.09817619
151	0x3f06eb63	0.5270292
152	0x3f4709f4	0.7774956
153	0x3ebc3fcd	0.36767426
154	0xbfbcb14a	-1.4741604
155	0x3f37ddfa	0.71823084
156	0x3e9f65c0	0.31132317
157	0x3f07a6bd	0.529888
158	0x402a4a58	2.6607876
159	0x3ed8cfe3	0.42346105
160	0x3d97d0c6	0.07412867
161	0xbe9b4f66	-0.30334014
162	0xbe655f23	-0.22399573
163	0x3ee26481	0.44217303
164	0x3e838276	0.2568547
165	0x3fa86a21	1.3157388
166	0x3e6b9b85	0.23008545
167	0x3efb30f4	0.49060786
168	0xbf896b5d	-1.073589
169	0x3f68d4ad	0.9094952
170	0xc01191dd	-2.2745278
171	0x3eebfec4	0.46092808
172	0x3f98da3d	1.1941601
173	0x3fb8b331	1.4429685
174	0x3f8a9ff7	1.0830067
175	0x3f8be428	1.0929003
176	0xbe2da87c	-0.16958803
177	0xbf245201	-0.6418763
178	0x401e57fd	2.4741204
179	0x3dc111ff	0.094272606
180	0x3f67260c	0.9029243
181	0xbf4a044e	-0.7891282
182	0x3e9f3575	0.31095472
183	0xbf1fa124	-0.62355256
184	0xbd96a8f8	-0.07356447
185	0x3fa5a886	1.2942054
186	0xbecf7f69	-0.40526894
187	0xbec1c545	-0.37845817
188	0xbda8d6ab	-0.0824407
189	0xbebe1d0e	-0.37131542
190	0x3d1f84e5	0.038945097
191	0xbf30cb45	-0.69060165
192	0xbf701f00	-0.937973
193	0xbec1add8	-0.37827945
194	0xbe30c68c	-0.1726324
195	0x3f18a077	0.5961985
196	0x3f815772	1.0104811
197	0xbdbee939	-0.093218274
198	0xbe95164d	-0.29118577
199	0xbe7a4e35	-0.24443896
200	0xbfd19f40	-1.6376724
201	0x3f0996c6	0.53745687
202	0xc02108b1	-2.5161555
203	0x3f83b1f9	1.0288688
204	0xc01023c7	-2.2521837
205	0x3fd5a2e1	1.6690332
206	0xbea89bda	-0.32931405
207	0x3ef1c215	0.47218385
208	0xc05b53f9	-3.4270003
209	0xbf7e7d34	-0.99409795
210	0xbee41be3	-0.44552526
211	0xbf4ea57b	-0.80721253
212	0xbff123d6	-1.8839061
213	0x3e63d22c	0.22248143
214	0xbf2120f3	-0.629409
215	0x3faf5b58	1.3699751
216	0x3f72875b	0.94737786
217	0x3e70c504	0.23512655
218	0xbfdfa613	-1.7472557
219	0xbf6ff7d8	-0.93737555
220	0xc086188a	-4.1904955
221	0xc003ac83	-2.0574043
222	0xc084dbb9	-4.1518216
223	0xbf60dbac	-0.8783519
224	0xc0efbad2	-7.491555
225	0x408887ea	4.266591
226	0xbf01251b	-0.50447243
227	0xc10129dd	-8.072721
228	0xc0488ff6	-3.1337867
229	0x3f8b97e5	1.090573
230	0x3e2aa23c	0.1666345
231	0xbf54ebdb	-0.83172387
232	0xbf615fa0	-0.8803654
233	0xbd8c022a	-0.0683635
234	0x3e3c88c2	0.18411544
235	0x3f3ccc64	0.73749375
236	0x3f982ed8	1.1889296
237	0xbd1a5ac6	-0.037684225
238	0xbf814d24	-1.0101666
239	0xbc72b282	-0.014813067
240	0xc0008944	-2.008378
241	0x3ed5e5d2	0.417769
242	0xbe686995	-0.22696526
243	0xbf858bfd	-1.0433346
244	0xc0035197	-2.0518548
245	0x3f33acd1	0.7018557
246	0x3e929a4a	0.28633338
247	0xbfaa9431	-1.3326474
248	0xbeeadce8	-0.45871663
249	0xbf0c5c66	-0.5482849
250	0xc008d0e4	-2.1377497
251	0xc004cc8d	-2.0749848
252	0x3f24bf53	0.6435444
253	0xc02243fb	-2.5353992
254	0x3c7e9205	0.015537743
255	0x3e7f0306	0.24903497

decoder.attention.linear_out.weight f4 [10, 20]
0	0x3ead295f	0.33820626
1	0x3d91e815	0.07124344
2	0x3d123c51	0.035702053
3	0xbf3af946	-0.7303661
4	0xbf964903	-1.1741031
5	0xbfbea3a2	-1.4893687
6	0xbdeab334	-0.114599615
7	0xbf68dafe	-0.90959156
8	0x3f2286a5	0.634867
9	0x3f5f958c	0.87337565
10	0xbee92e1f	-0.45543
11	0xbe040488	-0.12892354
12	0xbde6e1fe	-0.11273573
13	0x3ed7fc31	0.42184594
14	0xbeefa893	-0.468083
15	0xbeb457c8	-0.35223222
16	0xbfb1ede4	-1.3900723
17	0x3dfd3c4d	0.12365017
18	0xbda8577b	-0.082198106
19	0x3dabb1c5	0.08383516
20	0x3fa4c55e	1.2872732
21	0xbde2f4cc	-0.110818475
22	0xbeb211b7	-0.3477914
23	0x3eb3f92d	0.35151044
24	0x3f2c1a78	0.6722789
25	0x3f1090dd	0.56471044
26	0xbf75fda8	-0.96090174
27	0x3f489be1	0.7836285
28	0xbfd454d2	-1.6588385
29	0x3fc10b77	1.5081624
30	0xc004ec07	-2.076906
31	0xbd7d9b24	-0.06191553
32	0x3d555098	0.052078813
33	0x3e7c0005	0.24609382
34	0x3e0d4e7c	0.1379947
35	0xbdc91733	-0.09818878
36	0x4059f387	3.4054887
37	0x3e4447b9	0.19167985
38	0x3ea7bc53	0.32760867
39	0xbee76205	-0.4519197
40	0xbf9a3c21	-1.20496
41	0x3fb59039	1.4184638
42	0x3ed7598e	0.42060512
43	0xbfff83e7	-1.9962128
44	0xbbc0a840	-0.005879432
45	0x3f53eb05	0.82780486
46	0x3ef2f4e4	0.47452462
47	0xc07eb0af	-3.979534
48	0x4049ffef	3.156246
49	0x3fb8a9b1	1.4426786
50	0xbd5bbc76	-0.053646527
51	0x3d8bc39e	0.068244204
52	0xbe005a31	-0.12534405
53	0xbce903b7	-0.028444154
54	0xbef88c20	-0.48544407
55	0xbdd25d38	-0.10271686
56	0x3ebd2332	0.36940914
57	0xbe5b1a6b	-0.21396796
58	0xbd7a0b68	-0.061046034
59	0x3de4406a	0.111450985
60	0x3f014e80	0.50510406
61	0xbdb07eaf	-0.08617913
62	0x3c73272a	0.01484088
63	0xbf6a2d4a	-0.91475356
64	0x3fed9719	1.8561736
65	0xbfc394d1	-1.527979
66	0xbfd8fe97	-1.6952695
67	0xbe0c5715	-0.13705094
68	0xbcf00c77	-0.029302819
69	0x401688c5	2.3520977
70	0x3e42f620	0.19039202
71	0x3e0f4398	0.13990629
72	0x3de4c72a	0.111708
73	0xbe2b9dc9	-0.16759409
74	0x3e8911db	0.26771435
75	0xbe274630	-0.16335368
76	0xbf0fd6cb	-0.56187123
77	0x3e9e3981	0.30903247
78	0x3ee04633	0.43803558
79	0xbd832c9f	-0.06404995
80	0xbf2fb06a	-0.6862856
81	0x3e9afb73	0.30269966
82	0xc064ec97	-3.5769403
83	0x3ef6a7c2	0.48174864
84	0x3f75a5d1	0.9595614
85	0x40329884	2.7905588
86	0xbf10b068	-0.56519175
87	0x400add76	2.169767
88	0x3f9c83d6	1.2227733
89	0x3f2daf34	0.67845464
90	0x3f90ffc5	1.1328055
91	0x3df2e1c3	0.11859467
92	0x3edce043	0.43139848
93	0x3e67a3cc	0.22621077
94	0x3f06d9ba	0.52675974
95	0xbff78184	-1.93364
96	0x3eb0ac05	0.3450624
97	0x3e81e6d9	0.25371435
98	0xbfad8c7c	-1.3558497
99	0x3fc25aa4	1.5183911
100	0x3d82d80d	0.06388865
101	0x3fa4b7e3	1.2868618
102	0x402f73d5	2.7414448
103	0x3f483bcf	0.7821626
104	0x3eeedc22	0.46652323
105	0xbe99c040	-0.30029488
106	0xbdeddd40	-0.11614466
107	0xc04c001c	-3.1875067
108	0xbf1b6f04	-0.6071627
109	0xbd85a37c	-0.06525323
110	0x403a9b23	2.9157188
111	0xbec8c7a3	-0.3921481
112	0xbeb9f9b9	-0.36323336
113	0x3f999f21	1.2001687
114	0xbd9257e1	-0.07145668
115	0x3e338d9c	0.17534488
116	0x3ed07546	0.40714473
117	0x3e9156f2	0.28386647
118	0xbdbaef43	-0.09127667
119	0x3e517cab	0.20457713
120	0x3f70f281	0.9412003
121	0xbfc0ab67	-1.5052308
122	0x3f5c88a5	0.86146003
123	0x401b4cad	2.426555
124	0xbdac0660	-0.083996534
125	0x3f107d17	0.5644087
126	0xbfc088b3	-1.5041717
127	0x400aeaca	2.1705804
128	0x3f223ac6	0.6337093
129	0x3fcfb384	1.6226659
130	0xbe533537	-0.20625769
131	0xbb929e1e	-0.0044744154
132	0xbe55f869	-0.20895542
133	0x3fda3606	1.7047737
134	0xbf26cdc7	-0.6515774
135	0x400c0771	2.1879542
136	0xbf6591d7	-0.8967566
137	0x3f143e8c	0.5790794
138	0x3eb34cd7	0.35019562
139	0x3de13adb	0.10997554
140	0xbe724293	-0.23658209
141	0x3f967273	1.1753677
142	0x3f5aa852	0.85413086
143	0x3e801c62	0.25021654
144	0x3fe5302d	1.7905327
145	0x3ed62528	0.41825223
146	0x3f9d68de	1.2297628
147	0xbfe17797	-1.7614621
148	0x4005f7f6	2.0932593
149	0xc012006f	-2.2812765
150	0x3ecee5ec	0.4040979
151	0x3db845c7	0.08997684
152	0x3ad1c08e	0.001600282
153	0xbeb72f42	-0.35778242
154	0xbe4d23aa	-0.20033136
155	0x3d916713	0.07099738
156	0xbf42d6fa	-0.7610928
157	0xbe93081a	-0.28717119
158	0x3fd80dd7	1.6879224
159	0x3e2dd373	0.16975193
160	0x3e1f08ef	0.15530752
161	0xc00cdf09	-2.201113
162	0x4027a9f4	2.619748
163	0xbff7f12e	-1.9370477
164	0x40144858	2.3169155
165	0xbf346ea9	-0.70481354
166	0xbf04db79	-0.5189739
167	0x403e7539	2.9759047
168	0x3ea75c75	0.32687727
169	0x3f25dcfa	0.6479031
170	0xbc923de8	-0.017851785
171	0x3e8bc3c8	0.27297807
172	0xbe091fe7	-0.13391076
173	0x3fbeb74f	1.4899691
174	0xbef4d51c	-0.4781884
175	0xbeabe815	-0.33575502
176	0x406f7faf	3.7421682
177	0xbf660e62	-0.89865696
178	0x3f5ede72	0.87058175
179	0x3e6b5013	0.22979765
180	0xbf7bb327	-0.9832024
181	0x3e7949b8	0.24344528
182	0xbf571c82	-0.84027874
183	0x3e8f877b	0.2803305
184	0xbe29bd54	-0.16576129
185	0xbf85262f	-1.0402278
186	0x3f51023b	0.8164403
187	0xbec47735	-0.38372198
188	0xbf3a2743	-0.7271616
189	0xbff6ccd0	-1.9281254
190	0xbeb7d93f	-0.35907933
191	0xbd036fb5	-0.032088954
192	0x3dbe0311	0.092779286
193	0x3edaf377	0.42763874
194	0x3e3cfdb0	0.18456149
195	0xbf1996d0	-0.59995747
196	0x3e2de462	0.16981652
197	0x3f04429c	0.5166414
198	0x3e730034	0.23730546
199	0x3e4bbc82	0.19896129

decoder.attention.linear_out.bias f4 [10]
0	0xbf99ca65	-1.2014891
1	0x401d0fba	2.4540849
2	0xbed27172	-0.41102177
3	0x3edd736c	0.43252122
4	0x3e8cd3cd	0.2750534
5	0x3fbf17bd	1.4929119
6	0x3faa05f8	1.3283072
7	0x3f9cdd8b	1.225511
8	0x3f110b8b	0.5665824
9	0x400b08d7	2.1724145

decoder.out.weight f4 [355, 10]
0	0x402dcb72	2.7155423
1	0x40e2c4de	7.0865316
2	0xbd63ffde	-0.055663936
3	0xbb2cff78	-0.0026397388
4	0x40b7abc8	5.7397194
5	0x3fc868bc	1.5656962
6	0xbf84eb45	-1.0384299
7	0x4003bfc1	2.0585787
8	0x3dac7018	0.08419818
9	0x40b4c72d	5.6493134
10	0xc10121a4	-8.070713
11	0x40aa4ae5	5.3216424
12	0xc05bc15e	-3.4336772
13	0x40900ba8	4.501423
14	0xbc66bbb5	-0.014082839
15	0xbf9d0e7d	-1.2270046
16	0x3fae15b7	1.3600377
17	0x3fd3e679	1.655471
18	0xbffb6a87	-1.9641885
19	0x40df3600	6.975342
20	0xc0d2fcc8	-6.593357
21	0x40ac4366	5.3832273
22	0x3e9ffdb0	0.31248236
23	0x40cabb1c	6.3353405
24	0xc0d0f88e	-6.530341
25	0x40c8a440	6.27005
26	0xc07cd1eb	-3.9503124
27	0x3e93cfbb	0.28869423
28	0xc038fe8b	-2.890536
29	0x410039c6	8.014105
30	0xc04280a5	-3.0391018
31	0x40829e4f	4.081825
32	0x4004f2ac	2.0773115
33	0x4091d926	4.5577574
34	0xc0d8da71	-6.776665
35	0x4070709c	3.7568731
36	0xbff87273	-1.9409927
37	0x4096ca96	4.7122297
38	0x3ccb8cae	0.024847355
39	0x410bf66a	8.74766
40	0xc0205982	-2.5054631
41	0x40e7dd0b	7.245733
42	0xbf7c9bed	-0.98675424
43	0x40501c4b	3.2517269
44	0xc043292d	-3.0493882
45	0x40c249ec	6.0715237
46	0xbfb8c6d2	-1.4435675
47	0x4102e227	8.180213
48	0xc09c5d91	-4.8864217
49	0x411cd5f5	9.802236
50	0xbd7cc71a	-0.061713316
51	0xbf76cdc7	-0.9640774
52	0xc01c416b	-2.4414928
53	0x40054af2	2.0826993
54	0xbfb20e8e	-1.3910692
55	0x40f55fc2	7.667939
56	0xc07372be	-3.8038783
57	0xc0637eca	-3.5546136
58	0xbfeb4b03	-1.8382267
59	0x410d70ed	8.84007
60	0xc1032cf7	-8.198478
61	0x40940ba0	4.626419
62	0xc05cd746	-3.4506392
63	0x4056dcdf	3.357231
64	0xbf7c701a	-0.98608553
65	0xbf72c67d	-0.9483412
66	0x3f8be5ac	1.0929465
67	0xbf828efa	-1.0199883
68	0xc01d4fc5	-2.4579937
69	0x40ee2399	7.4418454
70	0xc118c1d5	-9.547322
71	0x40b99235	5.7990975
72	0xbff4165b	-1.9069322
73	0x4089002f	4.2812724
74	0x40070d35	2.110181
75	0xbf2a0d89	-0.66426903
76	0x3f6dd231	0.9289885
77	0xbfa3f8ed	-1.2810341
78	0xc0356529	-2.8342993
79	0x40b19c95	5.550364
80	0xc0d07d1c	-6.515272
81	0x4088644a	4.2622423
82	0xbfb28c0f	-1.3948992
83	0x4018588a	2.380404
84	0xc05dd83e	-3.4663234
85	0xc09f1186	-4.970889
86	0x408495f1	4.1433034
87	0x3eb8c7a8	0.36089826
88	0xc00479f6	-2.069944
89	0x410064dd	8.024625
90	0xc0225e2c	-2.5369978
91	0x407bb8ba	3.9331498
92	0x40488138	3.132887
93	0x3fc910a7	1.5708207
94	0xc0ce75bc	-6.451872
95	0xc01c89d8	-2.4459133
96	0x3f9ef735	1.2419192
97	0xbfb36ed1	-1.4018193
98	0xbf58f0c7	-0.847424
99	0x41058d68	8.347023
100	0xc007abba	-2.1198564
101	0x40a4c0f3	5.1485534
102	0x40bd978b	5.924749
103	0xbf8e64e1	-1.1124536
104	0x4017f63b	2.3744037
105	0xc0f003c9	-7.500462
106	0x3f633b89	0.8876272
107	0xc0a39465	-5.1118646
108	0xc085fc81	-4.187073
109	0x40a44d26	5.1344175
110	0x404d88af	3.2114675
111	0xc0291492	-2.6418805
112	0x40318984	2.7740183
113	0xc181f66d	-16.245325
114	0xc090d9f1	-4.526604
115	0xbff3c60f	-1.9044818
116	0xbff5cf20	-1.9203835
117	0xc1621231	-14.129441
118	0x40abc1c5	5.3674035
119	0x40c053a9	6.0102124
120	0x402ee78a	2.732882
121	0xc0c365de	-6.106185
122	0x40d15b34	6.542383
123	0xc1901f92	-18.015415
124	0xc0c83de6	-6.257556
125	0xbfbbd9b8	-1.4675817
126	0xc02b702f	-2.6787221
127	0xc18e525e	-17.790218
128	0x40d49ec8	6.6443825
129	0x40d9780c	6.795904
130	0x409a9562	4.830735
131	0xc13686f5	-11.4079485
132	0x41252322	10.321077
133	0xc1835e79	-16.42113
134	0xc104ba32	-8.295458
135	0xc01667a0	-2.3500748
136	0xc00f4b3f	-2.2389677
137	0xc184842a	-16.564533
138	0x40a5fb5e	5.1869345
139	0x40e9be32	7.304467
140	0x3fb8131e	1.4380834
141	0xc0c47a86	-6.1399565
142	0x41244879	10.2676935
143	0xc16665fb	-14.399898
144	0xc0a40d57	-5.1266284
145	0xbf98f1f7	-1.1948842
146	0xc002ac0d	-2.0417511
147	0xc19ed5db	-19.854422
148	0x40d5d846	6.6826506
149	0x40af2259	5.472943
150	0x40a6f263	5.217088
151	0xc0fe9aa0	-7.956375
152	0x4003c9f8	2.0592022
153	0xc1348792	-11.283098
154	0x40380239	2.8751357
155	0xc08c2785	-4.379824
156	0x3f858c1e	1.0433385
157	0xc12db333	-10.85625
158	0x40ca7154	6.326334
159	0xc01d9c4f	-2.4626653
160	0x40d6bbdc	6.710432
161	0xc0ab96ff	-5.362182
162	0x3e93faaa	0.2890218
163	0xc1710d81	-15.065797
164	0x4039d649	2.903704
165	0xc0389380	-2.8840027
166	0x3ed01154	0.4063822
167	0xc0c54cce	-6.1656256
168	0x40b6bb6d	5.710379
169	0xc04243c4	-3.035386
170	0x40dba266	6.863574
171	0xc09123bb	-4.5356116
172	0x3f158592	0.5840694
173	0xc1723cbf	-15.139831
174	0x4039c29d	2.9025033
175	0xc04df03f	-3.2177885
176	0xbf0b80a5	-0.5449317
177	0xc1042bfc	-8.260738
178	0x40ba6499	5.82478
179	0xc0628bfc	-3.539794
180	0x40c172ec	6.0452785
181	0xc03e1b9e	-2.9704356
182	0x403dafe1	2.9638598
183	0xc125a177	-10.35192
184	0x3ffc3864	1.9704709
185	0xbf8654fc	-1.0494685
186	0x3f9cef49	1.2260524
187	0xc042e8b8	-3.045454
188	0x40564221	3.3477862
189	0xc075e390	-3.8420143
190	0x3d3670db	0.04454122
191	0xc0c1ed11	-6.060189
192	0x3d072611	0.032995287
193	0x3ec548f4	0.3853222
194	0x3e9319bc	0.2873057
195	0x40fde3f3	7.934076
196	0xc0a5c323	-5.1800704
197	0x3f95182a	1.1647999
198	0x408498ac	4.1436367
199	0xc0a71e8f	-5.2224803
200	0x3f663976	0.8993143
201	0xc0dcbaa1	-6.897782
202	0x40361555	2.845052
203	0x4014ceba	2.3251176
204	0x3f0d6f47	0.5524792
205	0x41020e4b	8.1284895
206	0xc094903f	-4.642608
207	0x40006d03	2.0066535
208	0x40758974	3.8365145
209	0xc0ce7172	-6.4513483
210	0x3ee5ab5e	0.44857305
211	0xc1037dc0	-8.218201
212	0x4026a186	2.6036086
213	0x4072fa67	3.7965333
214	0xbc93a26f	-0.01802179
215	0x40ea8bcf	7.3295665
216	0xc07acf6b	-3.9189098
217	0x400f7f22	2.2421346
218	0x4093dcd8	4.6207085
219	0xc0cd2be3	-6.4116073
220	0xbe0caf0e	-0.13738653
221	0xc112c244	-9.172428
222	0xbed7d126	-0.42151755
223	0x40067519	2.100897
224	0x400550c0	2.0830536
225	0x41139596	9.22402
226	0xc0c84b8e	-6.259223
227	0xbd09348c	-0.03349738
228	0x40832bce	4.0990973
229	0xc096240c	-4.6919003
230	0x3f76f1ba	0.96462595
231	0xc0fea539	-7.957669
232	0x3f486d03	0.7829134
233	0xc046e852	-3.1079297
234	0xbe8b2766	-0.27178496
235	0x41099d29	8.600869
236	0xc0a30fb1	-5.0956655
237	0xc073ee34	-3.8114138
238	0x4089808c	4.2969418
239	0xc0b3c625	-5.6179376
240	0xc0010ff0	-2.0165977
241	0xc0a1a6f7	-5.0516315
242	0x3fd398d3	1.6531013
243	0xbf9ad725	-1.2096907
244	0x3fff1185	1.9927222
245	0x4107f048	8.496162
246	0xbfbd2c85	-1.4779211
247	0xc08289ca	-4.07932
248	0x4023d456	2.559835
249	0xc0e49537	-7.1432147
250	0x401da44c	2.463153
251	0xc0c132c6	-6.037448
252	0x405677f2	3.351071
253	0xc0496537	-3.1468027
254	0xbc9b6670	-0.018969744
255	0x411628ac	9.38493
