data/s2v_embedding_states.pth (torch_old, 14616 bytes, 1 tensors)

weight f4 [355, 10]
-0.39381194 -0.06687041 -2.2360554 1.4961686 0.7630534 -0.5384741 -0.009375353 -0.011150091
-0.78688514 -0.15268573 0.1561964 1.211045 -1.7603296 0.67459244 0.28275278 1.1955347
2.5151405 2.2634568 -1.1331625 0.2849862 0.43414694 -1.8445442 0.1436855 0.21466298
-0.1567403 -2.272513 2.6994762 0.09171795 0.96271706 -0.4784702 0.9780377 -0.014375075
-0.52658266 0.4528412 -2.182148 -1.1210676 2.1713538 -0.6220486 1.3476934 -2.0334527
0.7623171 -0.26433012 1.1017615 -0.42617205 -0.8809345 -0.74620616 0.74512243 0.20300755
-0.94236475 1.0326154 -1.4662186 -0.45409778 0.2872031 -1.6645269 -1.7221785 0.62362677
0.0223818 0.032413267 -1.94973 -0.04888627 2.1198297 0.20195162 -2.9964168 -0.81973726
-0.31247517 -0.22872446 1.0052576 2.1353512 -0.6858857 -0.104101 0.9684461 -0.3841379
0.6430203 -0.14669296 0.09681713 3.2022634 -1.1618521 1.290923 1.076122 -1.6545562
-0.57270724 -0.103762254 1.7007035 0.5822528 0.37218252 0.37079737 -0.6445378 2.3443534
0.29739925 1.3119879 -0.6901376 -1.6956068 -1.1446728 -0.6695131 -1.2872466 -0.038145754
0.8677862 -0.25407934 0.10017712 -1.3780468 -0.7319116 -1.3575395 -0.34112272 0.46495852
0.5150645 0.17161095 -0.86831194 0.111706346 -0.5540082 0.8548632 0.9543637 0.48207474
-0.102000974 0.81637996 -0.9093948 -1.0889719 0.8598683 -0.8063833 -0.63079345 0.77083313
0.7593077 -0.71464413 -0.34813967 -0.64580345 -1.1150615 1.4231169 0.2958882 0.9520456
-0.1914807 -0.03480538 0.32635307 -0.50886416 -1.7637748 1.3399248 -0.2559164 1.7307235
-0.92761785 -1.4579457 -1.9531926 0.71942276 -0.59791136 1.0569198 0.0688343 1.6884795
-0.60255253 0.8896656 -0.06868297 0.26787543 -0.41151676 -0.5082632 0.6322076 0.0060312757
0.08175275 -0.87234277 -0.20684382 1.4093896 -0.07799547 0.13345797 0.48762247 0.68088454
0.63459766 0.06135239 0.9188074 0.5281782 1.5097728 1.450958 2.3256252 1.616785
-0.1322819 0.5167123 0.4292655 -4.39326 -1.4113628 0.24765459 0.33784747 0.3677624
1.3604895 -0.8139863 0.5045365 -0.80041355 -0.2258475 0.6564461 0.12706181 0.653584
0.9581038 -0.8306984 -0.5781971 0.38769084 1.9052494 -0.22610998 -0.67170113 -1.2155697
0.31646726 -2.5113778 -1.0182208 -0.20848775 1.8640682 0.26116866 -1.017371 0.52569646
-2.27328 -0.8134396 1.1846098 -1.3752671 -2.266155 -0.93434155 -0.23978506 -0.55054885
-0.45416486 -0.49282077 1.2901955 -0.4089247 -1.7116084 -1.3124917 -0.35198724 0.10045835
-1.8089609 0.99367434 0.48021135 0.1287084 -0.18022469 -2.0396218 -0.28734747 0.73472583
-0.2731011 1.6590173 -0.6650137 1.9521656 0.84290713 -0.49728793 0.12801974 -1.7667179
-0.13811031 0.2513825 1.2348989 -0.33818015 0.8236454 -0.16042465 0.16786057 1.3080941
-0.9804691 1.6896199 1.8854059 0.28623685 -0.7867587 -0.40441307 0.5845636 0.7096566
0.4337052 0.20145036 1.0384628 -1.8358294 0.14913064 -0.33161682 1.7056576 -0.17529847
00000000: b8a1 c9be 5bf3 88bd 881b 0fc0 7482 bf3f
00000010: 7857 433f 70d9 09bf 159b 19bc dfae 36bc
00000020: 4e71 49bf a659 1cbe f3f1 1f3e 8603 9b3f
00000030: 7b52 e1bf 17b2 2c3f f9c4 903e 4807 993f
00000040: 10f8 2040 7adc 1040 780b 91bf b6e9 913e
00000050: 8248 de3e 061a ecbf 4b22 133e 9dd0 5b3e
00000060: 8780 20be da70 11c0 38c4 2c40 9fd6 bb3d
00000070: a074 763f 0cfa f4be ae60 7a3f 6f85 6bbc
00000080: 1fce 06bf cdda e73e 50a8 0bc0 257f 8fbf
00000090: 76f7 0a40 943e 1fbf 3881 ac3f 1724 02c0
000000a0: 3727 433f 4756 87be 8506 8d3f 3933 dabe
000000b0: ec84 61bf 5e07 3fbf 58c0 3e3f 36e1 4f3e
000000c0: d13e 71bf be2c 843f 0dad bbbf 817f e8be
000000d0: 490c 933e 380f d5bf 5870 dcbf 01a6 1f3f
000000e0: 095a b73c c6c3 043d c190 f9bf f83c 48bd
000000f0: 4aab 0740 68cc 4e3e 4bc5 3fc0 4dda 51bf
00000100: bffc 9fbe bf36 6abe 48ac 803f 98a9 0840
00000110: 3596 2fbf e832 d5bd 15ec 773f b9ad c4be
00000120: fa9c 243f ae36 16be 0f48 c63d e2f1 4c40
00000130: 92b7 94bf f73c a53f 5ebe 893f 7fc8 d3bf
00000140: f19c 12bf 4e81 d4bd a7b0 d93f 850e 153f
00000150: b58e be3e 27d9 bd3e 6e00 25bf e309 1640
00000160: b744 983e 38ef a73f dcac 30bf a509 d9bf
00000170: a384 92bf 3665 2bbf 7fc4 a4bf b93e 1cbd
00000180: 3d27 5e3f b016 82be a929 cd3d d663 b0bf
00000190: 8f5e 3bbf dbc3 adbf a3a7 aebe 0b0f ee3e
000001a0: 44db 033f c8ba 2f3e b149 5ebf 4cc6 e43d
000001b0: 7bd3 0dbf 51d8 5a3f 2e51 743f 80d2 f63e
000001c0: e3e5 d0bd 47fe 503f 19ce 68bf 6e63 8bbf
000001d0: 5420 5c3f 236f 4ebf ae7b 21bf 5255 453f
000001e0: fd61 423f ebf2 36bf 5d3f b2be 6053 25bf
000001f0: 56ba 8ebf b228 b63f a87e 973e 43b9 733f
00000200: 8413 44be 1690 0ebd c017 a73e ec44 02bf
00000210: 5fc3 e1bf a882 ab3f 7907 83be 5988 dd3f
00000220: 5d78 6dbf f79d babf 3702 fabf 172c 383f
00000230: b810 19bf 2649 873f fff8 8c3d 1920 d83f
00000240: e240 1abf 20c1 633f a8a9 8cbd f826 893e
00000250: 53b2 d2be 891d 02bf 5bd8 213f 02a2 c53b
00000260: fc6d a73d db51 5fbf dece 53be e166 b43f
00000270: 17bc 9fbd 35a9 083e a7a9 f93e 734e 2e3f
00000280: fe74 223f a54c 7b3d f636 6b3f b036 073f
00000290: 3c40 c13f feb8 b93f 0bd7 1440 d0f2 ce3f
000002a0: e874 07be 4247 043f b0c8 db3e 9695 8cc0
000002b0: 89a7 b4bf 2a99 7d3e 58fa ac3e 5a4b bc3e
000002c0: 8524 ae3f 6861 50bf 4e29 013f e7e7 4cbf
000002d0: 9144 67be da0c 283f 7e1c 023e 4851 273f
000002e0: 4a46 753f a6a8 54bf ba04 14bf 6a7f c63e
000002f0: 36df f33f 6089 67be 9bf4 2bbf ca97 9bbf
00000300: ff07 a23e 6aba 20c0 0f55 82bf d07d 55be
00000310: c999 ee3f e6b7 853e 3739 82bf 0b94 063f
00000320: 6b7d 11c0 943d 50bf 4ba1 973f c108 b0bf
00000330: af08 11c0 0231 6fbf 378a 75be c5f0 0cbf
00000340: 4c88 e8be 0153 fcbe 2025 a53f 945e d1be
00000350: fc15 dbbf baff a7bf ac37 b4be 1bbd cd3d
00000360: 088c e7bf 7161 7e3f 43de f53e 23cc 033e
00000370: d28c 38be 2a89 02c0 351f 93be fe16 3c3f
00000380: e8d3 8bbe ae5a d43f 563e 2abf 90e0 f93f
00000390: c3c8 573f 869c febe 9b17 033e d023 e2bf
000003a0: ca6c 0dbe 35b5 803e 2b11 9e3f f325 adbe
000003b0: 6dda 523f 5c46 24be a4e3 2b3e a16f a73f
000003c0: 0600 7bbf 7745 d83f fb54 f13f a38d 923e
000003d0: 0569 49bf 3b0f cfbe f6a5 153f 0eac 353f
000003e0: 9c0e de3e 0149 4e3e 59ec 843f 75fc eabf
000003f0: b4b5 183e aec9 a9be fd52 da3f 7181 33be
